codes/netInitModels/eegNet_1.pth (torch_old, 15626 bytes, 18 tensors)

firstBlocks.0.0.weight f4 [8, 1, 1, 125]
0	0xbd4697a3	-0.048484456
1	0x3d7b6e06	0.061384223
2	0x3d6d7c1a	0.05797968
3	0x3d360c16	0.04444512
4	0x3db0fa35	0.08641473
5	0x3da0b47f	0.07846927
6	0x3d6fa082	0.05850268
7	0x3d25902a	0.04042069
8	0x3cd7a588	0.026324049
9	0xbd2a9ea3	-0.041655194
10	0xbda52d04	-0.08065227
11	0x3d34a4fe	0.04410266
12	0x3d80f717	0.06297129
13	0xbd9822d0	-0.07428515
14	0x3d69c3ee	0.05707162
15	0x3d161342	0.03663946
16	0x3cecbfe4	0.028900094
17	0xbcfde48c	-0.030992769
18	0xbc85ea64	-0.016347118
19	0xbd34d1d4	-0.04414542
20	0x3d12dd7e	0.035855763
21	0x3cc80788	0.024417654
22	0x3c21b5b8	0.009869985
23	0xbd786664	-0.060644522
24	0xbd89e59a	-0.06733246
25	0x3d6f566e	0.058432035
26	0xbd801949	-0.06254823
27	0xbd572ce6	-0.052533053
28	0xbc6b6330	-0.01436691
29	0xbcdae4f8	-0.026720509
30	0xbbd22a30	-0.0064137205
31	0x3d31350e	0.043263488
32	0x3d320ab6	0.043467246
33	0x3be75960	0.007060215
34	0x3d9a6e4d	0.075405695
35	0x3c4426a8	0.011972107
36	0x3d856825	0.065140046
37	0xbda49bdc	-0.0803754
38	0xbd523754	-0.051322296
39	0xbd603a34	-0.054743007
40	0xbcbca7e0	-0.023029268
41	0x3d980be1	0.07424141
42	0xba068a80	-0.00051323324
43	0xbdb3b82c	-0.08775362
44	0xbc8fbc04	-0.017545708
45	0xbd5b9ede	-0.053618304
46	0x3cfd531c	0.030923419
47	0x3db13b4b	0.08653887
48	0x3d82badf	0.06383299
49	0xbc95d3dc	-0.018289499
50	0x3d796296	0.060885035
51	0x3d946265	0.0724533
52	0xbdab0ee5	-0.0835245
53	0x3d91fefb	0.07128712
54	0x3d213a36	0.039362155
55	0x3ca0056c	0.019533835
56	0xbc300880	-0.010744214
57	0xbdb6e528	-0.08930427
58	0x3d43cf42	0.04780508
59	0x3ca566a0	0.020190537
60	0xbd69d991	-0.057092253
61	0xbc967338	-0.018365487
62	0xbd39a3d6	-0.04532226
63	0x3a348100	0.00068856776
64	0x3c47e1b8	0.012199812
65	0xbc5c2798	-0.013437174
66	0x3d907a81	0.07054616
67	0x3c98435c	0.018586807
68	0xbd650353	-0.055911373
69	0xbd9c8b10	-0.076437116
70	0xbd4f64c4	-0.050633207
71	0xbcef831c	-0.029237323
72	0x3d746cd2	0.05967409
73	0xbd89f736	-0.06736605
74	0xbd79fa8e	-0.061029963
75	0xbc1ad040	-0.009449065
76	0x3b93d640	0.0045116246
77	0xbd0e0373	-0.03467126
78	0xbda1093f	-0.07863092
79	0xbd92a9d0	-0.071612954
80	0xbd241bc0	-0.040065527
81	0xbdaaf753	-0.083479546
82	0xbd19e286	-0.037569545
83	0x3d852977	0.065020494
84	0x3d0fee4a	0.03513936
85	0xbd729d38	-0.059231967
86	0x3d9a0be5	0.075218
87	0x3d68f006	0.05686953
88	0x3d934119	0.07190151
89	0x3d2b590a	0.04183296
90	0xbd688b7d	-0.05677365
91	0x3d4ac57a	0.049504735
92	0x3d6d3cb6	0.057919227
93	0x3db28487	0.08716684
94	0x3cb722e8	0.022355512
95	0xbd5b1ce6	-0.053494357
96	0xbc282ea8	-0.01026503
97	0xbda72a62	-0.08162381
98	0xbd97961c	-0.07401678
99	0x3bb81a20	0.0056183487
100	0xbc9341ac	-0.01797565
101	0xbcd6a420	-0.026201308
102	0xbdacff60	-0.084471464
103	0xbda424e1	-0.080148466
104	0x3d688bf6	0.056774102
105	0xbdb32a30	-0.08748281
106	0x3c08a7b8	0.0083407685
107	0xbd358d64	-0.044324294
108	0xbdacc695	-0.08436314
109	0x3d72ec72	0.059307523
110	0xbd376076	-0.044769727
111	0xbd21bc5b	-0.03948627
112	0x3d761e92	0.060087748
113	0xbd2ccc84	-0.04218723
114	0x3bea87f0	0.0071573183
115	0x3d1abffa	0.03778074
116	0xb95e1c00	-0.00021182
117	0xbd34ca57	-0.04413828
118	0xbbfa4510	-0.0076376274
119	0x3d7af5d2	0.06126959
120	0xbcfcf1fc	-0.030877106
121	0x3d274402	0.04083634
122	0x3c6780b8	0.01412981
123	0x3da3529b	0.0797474
124	0x3d101e8e	0.03518539
125	0xbd0459f4	-0.03231235
126	0xbc80f130	-0.015740007
127	0xba89e080	-0.0010519177
128	0x3d76c4e6	0.06024637
129	0xbca464b8	-0.020067558
130	0xbdaa13b6	-0.08304541
131	0xbdb0994e	-0.086229905
132	0x3d6765d6	0.056493603
133	0xbd418980	-0.04725027
134	0xbd4932c4	-0.04912068
135	0xbdaf12e2	-0.085485235
136	0xbd6f91e1	-0.05848873
137	0x3d738ffa	0.05946348
138	0xbd63e120	-0.055634618
139	0xbda60eeb	-0.08108314
140	0x3d8d385f	0.068955176
141	0x3d696c3e	0.056987993
142	0xbc48c9d8	-0.012255155
143	0x3cc8f474	0.024530627
144	0x3d12f436	0.03587743
145	0xbd9ec9ce	-0.07753335
146	0xbd012f1a	-0.03153906
147	0xbc254ed8	-0.010089599
148	0x3d98b9f7	0.07457345
149	0xbc7e1708	-0.015508421
150	0xbd585e7b	-0.05282448
151	0x3d280976	0.041024648
152	0x3c5e89a8	0.0135826245
153	0x3d5b1dc6	0.05349519
154	0x3cfc97b0	0.030834049
155	0xbd7bb69c	-0.061453447
156	0xbd6a72c9	-0.057238374
157	0xbd516c6a	-0.051128782
158	0xbc95017c	-0.018189184
159	0xbc1d0800	-0.009584427
160	0x3da45729	0.08024437
161	0x3d97960f	0.07401668
162	0xbd96872b	-0.0735
163	0x3b924c70	0.0044646785
164	0xbdb12220	-0.08649087
165	0xbda74a68	-0.08168489
166	0xbc832108	-0.016006961
167	0xbd52de76	-0.051481687
168	0x3d65f806	0.056144737
169	0xbd2b1d89	-0.041776214
170	0x3d2900ba	0.04126046
171	0xbbd8a420	-0.006611362
172	0x3dae0825	0.08497647
173	0x3c377010	0.011196151
174	0xbdb684a2	-0.089120165
175	0xbdace817	-0.08442705
176	0xb9179800	-0.00014457107
177	0x3c139568	0.009007789
178	0x3d5c59fa	0.053796746
179	0xbbd5bf40	-0.006523043
180	0x3d911e9b	0.07085916
181	0x3d660fba	0.05616734
182	0xbd62aebb	-0.055342417
183	0xbd6bb748	-0.057547837
184	0x3d993261	0.07480312
185	0x3cf798d8	0.030224249
186	0x3da75851	0.08171142
187	0x3b22da00	0.0024849176
188	0x3d0fab76	0.035075627
189	0x3d90a49d	0.070626475
190	0x3d522c52	0.0513118
191	0xbd909f22	-0.07061602
192	0xbd787559	-0.060658786
193	0xbda4d26d	-0.08047948
194	0x3b8deb30	0.004331015
195	0xb9a48600	-0.00031380355
196	0xbc8bbad0	-0.017056853
197	0xbbb3c200	-0.005485773
198	0x3d88c305	0.06677822
199	0xbd06e397	-0.03293189
200	0xbcfc3e68	-0.030791476
201	0xbd0fc1bf	-0.03509688
202	0x3bbe9620	0.005816236
203	0x3d6cdce2	0.057827838
204	0xbbf7b1a0	-0.0075590163
205	0xbd4776a0	-0.048697114
206	0x3c389cb8	0.011267833
207	0x3ce6d668	0.028178409
208	0xbd1e2ad5	-0.038615067
209	0xbc026dc8	-0.007960744
210	0x3d3ff45a	0.04686389
211	0x3c7cb008	0.0154228285
212	0xbdb510c9	-0.08841092
213	0x3db55463	0.08853986
214	0x3d7d97b2	0.061912246
215	0x3d0d7e6c	0.034544393
216	0x3d75f116	0.06004437
217	0xbd02ff07	-0.031981494
218	0x3d20ccd2	0.039257832
219	0xbdac389f	-0.08409237
220	0x3d39c95e	0.045358054
221	0x3da44d9d	0.08022616
222	0xbd14e358	-0.036349624
223	0xbcd4aacc	-0.025960349
224	0x3d921927	0.07133704
225	0x3d2faf0a	0.04289154
226	0xbd11ea89	-0.03562406
227	0xbb663340	-0.0035125762
228	0x3ca0ed44	0.019644387
229	0x3d8890ef	0.06668269
230	0x3d8c9db3	0.06866016
231	0x3c9745c4	0.018465884
232	0xbcd72998	-0.02626495
233	0xbd09e2a0	-0.033663392
234	0xbd8ed0f0	-0.069734454
235	0xbd807f62	-0.06274296
236	0x3ce005f0	0.027346581
237	0xbd95a00e	-0.07305919
238	0x3ca345a4	0.019930668
239	0x3d30721a	0.043077566
240	0xbda87d99	-0.08227081
241	0x3c47bf90	0.012191668
242	0xbcb971d4	-0.022637285
243	0x3cf69700	0.0301013
244	0x3d5923b2	0.053012557
245	0xbc44ac10	-0.0120039135
246	0xbdaa98fe	-0.08329962
247	0x3d6eeafe	0.058329575
248	0xbc8cfdbc	-0.017210834
249	0x3c181900	0.009283304
250	0x3c1e72a0	0.009670883
251	0xbd88ce56	-0.066799805
252	0xbd810086	-0.06298928
253	0xbcb7b90c	-0.022427104
254	0xbd9b4201	-0.075809486
255	0xbd2fd410	-0.042926848

firstBlocks.0.1.weight f4 [8]
0	0x3f800000	1.0
1	0x3f800000	1.0
2	0x3f800000	1.0
3	0x3f800000	1.0
4	0x3f800000	1.0
5	0x3f800000	1.0
6	0x3f800000	1.0
7	0x3f800000	1.0

firstBlocks.0.1.bias f4 [8]
0	0x00000000	0.0
1	0x00000000	0.0
2	0x00000000	0.0
3	0x00000000	0.0
4	0x00000000	0.0
5	0x00000000	0.0
6	0x00000000	0.0
7	0x00000000	0.0

firstBlocks.0.1.running_mean f4 [8]
0	0x00000000	0.0
1	0x00000000	0.0
2	0x00000000	0.0
3	0x00000000	0.0
4	0x00000000	0.0
5	0x00000000	0.0
6	0x00000000	0.0
7	0x00000000	0.0

firstBlocks.0.1.running_var f4 [8]
0	0x3f800000	1.0
1	0x3f800000	1.0
2	0x3f800000	1.0
3	0x3f800000	1.0
4	0x3f800000	1.0
5	0x3f800000	1.0
6	0x3f800000	1.0
7	0x3f800000	1.0

firstBlocks.0.2.weight f4 [16, 1, 20, 1]
0	0xbe31b40a	-0.17353836
1	0x3e248a58	0.16068399
2	0xbe347592	-0.17622975
3	0x3d741470	0.059589803
4	0xbdbaf2be	-0.09128331
5	0x3d82e798	0.06391829
6	0x3ca44128	0.0200506
7	0x3e09da88	0.1346227
8	0xbb348a40	-0.0027548224
9	0xbe309615	-0.17244752
10	0xbd855f38	-0.06512302
11	0x3e1239b2	0.14279822
12	0xbd639650	-0.05556327
13	0xbd0e2e68	-0.034712225
14	0x3e1210fc	0.14264292
15	0xbd6e0bc8	-0.058116704
16	0x3e158cf2	0.14604548
17	0x3de900fc	0.11377141
18	0xbe126b25	-0.14298685
19	0xbe3f7d9c	-0.1870026
20	0x3e301c3c	0.1719827
21	0x3e4ea67a	0.20180693
22	0xbdbfc9fa	-0.09364696
23	0xbdb36558	-0.08759564
24	0x3dff5198	0.12466735
25	0x3da48ffc	0.08035275
26	0x3d59cac0	0.053171873
27	0xbe494042	-0.19653419
28	0x3dc2d7a0	0.095137835
29	0x3da00778	0.078139246
30	0xbe54d5cd	-0.20784684
31	0xbe376f64	-0.17913586
32	0xbde8421f	-0.113407366
33	0xbd10f3cc	-0.035388753
34	0xbdab35b6	-0.08359854
35	0xbdca0ae5	-0.09865359
36	0xbe41c2b9	-0.18921937
37	0x3e029c64	0.12754971
38	0x3dd2142c	0.10257754
39	0xbe0365d0	-0.12831807
40	0xbe32b7ea	-0.1745297
41	0x3e55fb6a	0.20896688
42	0x3d9bfb4c	0.076162905
43	0xbdf0dee3	-0.11761262
44	0xbe0a3b78	-0.13499248
45	0x3d085148	0.03328064
46	0x3dd82d98	0.10555571
47	0x3e602a80	0.21891212
48	0x3e0ad0e4	0.13556248
49	0x3dfdb65c	0.12388298
50	0xbde8f85d	-0.113754965
51	0xbe15cb4b	-0.14628331
52	0x3e1e384a	0.1545116
53	0xbdd534da	-0.10410471
54	0xbdc54192	-0.09631647
55	0xbd9591fa	-0.073032334
56	0xbdf9c9d7	-0.12196701
57	0x3e14b7b2	0.14523199
58	0xbb677200	-0.0035315752
59	0x3de8b4f4	0.11362639
60	0x3dc32a98	0.095296085
61	0x3cc9e810	0.024646789
62	0xbda207bc	-0.079116315
63	0xbe0f31be	-0.13983819
64	0x3e30434c	0.17213172
65	0xbdbb22b6	-0.0913748
66	0xbcfc6e60	-0.03081435
67	0xbe0370f2	-0.12836054
68	0x3deb7458	0.114968
69	0xbdd1c699	-0.102429576
70	0x3de2d204	0.110752136
71	0x3d1b9470	0.037983358
72	0x3e44bd14	0.19212753
73	0x3dca41c8	0.09875828
74	0x3e5151cc	0.2044136
75	0x3e285a0a	0.16440597
76	0xbd15f6dc	-0.036612377
77	0x3c4ed4c0	0.012623966
78	0x3d9c12d8	0.07620782
79	0xbe0b54de	-0.13606593
80	0x3e23e184	0.16003996
81	0xbde2f74e	-0.11082326
82	0xbdecd5b2	-0.11564197
83	0x3d580318	0.052737325
84	0xbe2dcc22	-0.16972402
85	0x3d10c798	0.035346597
86	0xbe15f149	-0.14642824
87	0xbd35674c	-0.044287965
88	0xbd8bf9ea	-0.06834777
89	0x3e4bda42	0.19907477
90	0x3d91410c	0.07092485
91	0xbe540da8	-0.20708334
92	0x3d2a5478	0.041584462
93	0x3e22815e	0.15869662
94	0x3d95ee2c	0.07320818
95	0x3e3d3b22	0.18479589
96	0x3dad03fc	0.084480256
97	0x3d337850	0.04381591
98	0xbe64a5a8	-0.22328818
99	0x3dddcf64	0.10830572
100	0xbe1a2029	-0.1505133
101	0xbd499ba8	-0.04922071
102	0x3da780d8	0.08178872
103	0xbda8556a	-0.082194164
104	0x3d708a28	0.058725506
105	0xbd651bec	-0.05593483
106	0xbe4fda35	-0.20298083
107	0xbe02c897	-0.12771831
108	0xbe26db7e	-0.16294667
109	0x3d2f3e38	0.042783946
110	0x3e30b548	0.17256653
111	0x3e630c44	0.22172648
112	0x3dfad6ec	0.12248024
113	0xbbdae660	-0.006680295
114	0xbdfbef3b	-0.12301489
115	0xbcf77df8	-0.030211434
116	0x3d1497c8	0.036277562
117	0xbdca9ea1	-0.09893537
118	0x3e1c24e8	0.15248454
119	0xbda5a1f8	-0.08087534
120	0x3e5a03d0	0.21290517
121	0x3e5514ce	0.20808718
122	0xbe4853c2	-0.19563201
123	0x3e1c415a	0.15259305
124	0xbc47b1c0	-0.012188375
125	0xbd26c028	-0.0407106
126	0xbe1787f6	-0.14797959
127	0xbdef6fa7	-0.11691218
128	0xbd933700	-0.07188225
129	0x3cf599c0	0.02998054
130	0x3e5c67fc	0.21524042
131	0xbd7f2180	-0.062287807
132	0x3d08abe8	0.033367068
133	0x3e02cf62	0.12774423
134	0xbe10ef82	-0.14153865
135	0x3d38f3d0	0.045154393
136	0xbccab010	-0.024742156
137	0x3ddbf008	0.10739142
138	0x3e52bcbe	0.20579812
139	0x3da399b0	0.07988298
140	0xbe072f6e	-0.13201687
141	0x3d8af584	0.0678511
142	0xbe11ca20	-0.14237261
143	0x3d7ce8b0	0.061745346
144	0x3e0d19e2	0.13779405
145	0xbd3d1f2c	-0.046172306
146	0xbe4c5bd2	-0.19956902
147	0x3e28e530	0.16493678
148	0xbe22c0ed	-0.15893908
149	0xbdf14cb1	-0.11782206
150	0xbe29641d	-0.16542096
151	0x3d1601b0	0.036622703
152	0x3c23ea40	0.01000458
153	0x39a2de00	0.0003106445
154	0x3e2cdff2	0.16882303
155	0xbbe5ce00	-0.0070130825
156	0xbdfc0e8c	-0.12307462
157	0x3e1d7186	0.15375337
158	0xbc2cada0	-0.010539442
159	0xbe21e292	-0.15809086
160	0xbcd6b1c8	-0.02620782
161	0x3ac17580	0.0014759749
162	0x3e1625a0	0.1466279
163	0x3e1b6024	0.15173393
164	0xbe09c469	-0.13453831
165	0x3e137d42	0.14403251
166	0xbda9936a	-0.0828007
167	0xbde2e306	-0.110784575
168	0xbcb8b568	-0.022547439
169	0x3e2c7f72	0.16845492
170	0x3e295802	0.16537479
171	0xbe570ed8	-0.21001756
172	0xbda44530	-0.08021009
173	0xbe100cfe	-0.14067456
174	0x3db43714	0.08799568
175	0xbd2533ac	-0.04033248
176	0xbe4246c0	-0.18972301
177	0xbd73b158	-0.0594953
178	0x3e5cb676	0.21553978
179	0x3d4251e0	0.047441363
180	0x3dfa5738	0.12223667
181	0xbc16dd00	-0.009207964
182	0xbaa0ec80	-0.0012277514
183	0x3cfe6d40	0.031057954
184	0xbe4f5a06	-0.20249185
185	0xbe08b9fc	-0.13352197
186	0xbdbf0412	-0.09326948
187	0xbd416430	-0.047214687
188	0x3e34f856	0.17672858
189	0xbd3f131c	-0.046649083
190	0x3e0f35b4	0.1398533
191	0xbe1e9b76	-0.15488991
192	0x3bb78520	0.0056005865
193	0xbe1c9e08	-0.15294659
194	0x3e2b7304	0.16743094
195	0xbe342774	-0.17593175
196	0xbbc46d60	-0.005994484
197	0xbe41a0d7	-0.18909012
198	0x3d4c3bd8	0.04986176
199	0xbda2e4da	-0.07953806
200	0x3e024e2c	0.12725133
201	0x3d78bbb8	0.060725898
202	0x3e422a6e	0.18961498
203	0x3d8040d4	0.06262365
204	0x3cb0bae0	0.021573484
205	0xbcc8b858	-0.024501964
206	0xbdf2ff6d	-0.11865125
207	0xbd80079c	-0.062514514
208	0xbb673440	-0.0035278946
209	0x3d3434a8	0.04399553
210	0x3d04ac28	0.032390743
211	0x3e4903d0	0.1963036
212	0xbe469476	-0.19392571
213	0x3da0a74c	0.07844409
214	0xbe43d8b4	-0.19125634
215	0xbe59a8f4	-0.21255857
216	0xbe261f38	-0.16222847
217	0xbd93e528	-0.072214425
218	0xbe032010	-0.128052
219	0x3b3d7f80	0.0028915107
220	0x3d71cd58	0.05903372
221	0x3e3491e6	0.17633781
222	0xbe00e106	-0.1258584
223	0x3de3d3f4	0.11124411
224	0xbda01f20	-0.078184366
225	0xbe516186	-0.20447358
226	0x3e1bda64	0.15220028
227	0xbe53a9b6	-0.20670208
228	0xbca96988	-0.020680204
229	0x3e4e58ec	0.20151109
230	0x3e528610	0.20558953
231	0xbe42baf4	-0.1901663
232	0x3ca6f1b0	0.020378917
233	0xbe5d1f28	-0.21593916
234	0x3e4773c8	0.19477761
235	0x3db1ddf8	0.08684915
236	0xbdaf7b5c	-0.08568451
237	0xbe5ebb76	-0.21751198
238	0x3e455a54	0.19272739
239	0x3e433666	0.1906372
240	0xbe606393	-0.21912985
241	0x3df60f8c	0.12014684
242	0xbe43b4b6	-0.19111905
243	0x3dcca1f0	0.099918246
244	0xbdbaa854	-0.09114137
245	0xbb4ab0c0	-0.0030928105
246	0x3e53346c	0.20625466
247	0x3da42b68	0.080160916
248	0x3d85a2f4	0.065252215
249	0xbc2fe560	-0.01073584
250	0x3e5b7c0e	0.21434042
251	0xbe1b2eca	-0.15154567
252	0xbe0706fe	-0.13186261
253	0xbd84f0f8	-0.06491274
254	0x3d7abea0	0.06121695
255	0x3e3ef792	0.18649128

firstBlocks.0.3.weight f4 [16]
0	0x3f800000	1.0
1	0x3f800000	1.0
2	0x3f800000	1.0
3	0x3f800000	1.0
4	0x3f800000	1.0
5	0x3f800000	1.0
6	0x3f800000	1.0
7	0x3f800000	1.0
8	0x3f800000	1.0
9	0x3f800000	1.0
10	0x3f800000	1.0
11	0x3f800000	1.0
12	0x3f800000	1.0
13	0x3f800000	1.0
14	0x3f800000	1.0
15	0x3f800000	1.0

firstBlocks.0.3.bias f4 [16]
0	0x00000000	0.0
1	0x00000000	0.0
2	0x00000000	0.0
3	0x00000000	0.0
4	0x00000000	0.0
5	0x00000000	0.0
6	0x00000000	0.0
7	0x00000000	0.0
8	0x00000000	0.0
9	0x00000000	0.0
10	0x00000000	0.0
11	0x00000000	0.0
12	0x00000000	0.0
13	0x00000000	0.0
14	0x00000000	0.0
15	0x00000000	0.0

firstBlocks.0.3.running_mean f4 [16]
0	0x00000000	0.0
1	0x00000000	0.0
2	0x00000000	0.0
3	0x00000000	0.0
4	0x00000000	0.0
5	0x00000000	0.0
6	0x00000000	0.0
7	0x00000000	0.0
8	0x00000000	0.0
9	0x00000000	0.0
10	0x00000000	0.0
11	0x00000000	0.0
12	0x00000000	0.0
13	0x00000000	0.0
14	0x00000000	0.0
15	0x00000000	0.0

firstBlocks.0.3.running_var f4 [16]
0	0x3f800000	1.0
1	0x3f800000	1.0
2	0x3f800000	1.0
3	0x3f800000	1.0
4	0x3f800000	1.0
5	0x3f800000	1.0
6	0x3f800000	1.0
7	0x3f800000	1.0
8	0x3f800000	1.0
9	0x3f800000	1.0
10	0x3f800000	1.0
11	0x3f800000	1.0
12	0x3f800000	1.0
13	0x3f800000	1.0
14	0x3f800000	1.0
15	0x3f800000	1.0

firstBlocks.1.0.weight f4 [16, 1, 1, 22]
0	0x3e552748	0.20815766
1	0x3d696170	0.05697769
2	0x3dbae6d0	0.09126055
3	0x3d9ed4a8	0.07755405
4	0xbe229b96	-0.15879664
5	0x3e158dae	0.14604828
6	0x3e0210fc	0.12701792
7	0x3cf8bdc8	0.030363932
8	0x3e3b7b0c	0.18308657
9	0x3de3b5e0	0.11118674
10	0x3e51a132	0.20471647
11	0xbc4652b0	-0.012104675
12	0x3e0cba8a	0.13743034
13	0xbb9c2500	-0.004765153
14	0x3df808e8	0.12111074
15	0x3c3e26a0	0.011605889
16	0xbe4dac7a	-0.20085326
17	0xbe4636da	-0.19356862
18	0x3e32a7d4	0.17446834
19	0x3df54240	0.11975527
20	0xbe49b65e	-0.19698474
21	0xbaabef80	-0.0013117641
22	0x3e1b2294	0.1514991
23	0x3e1b89b4	0.15189248
24	0x3e2489f0	0.16068244
25	0xbe341760	-0.17587042
26	0xbe230001	-0.1591797
27	0x3dcd4fa0	0.10024953
28	0xbda0b780	-0.078475
29	0xbcf2ce08	-0.029639259
30	0xbdd68f09	-0.104765005
31	0xbd30a7f4	-0.043128923
32	0xbdf3a3a1	-0.11896444
33	0x3d3138f0	0.04326719
34	0x3e2f911e	0.17145202
35	0x3e0007d6	0.12502989
36	0xbd640aa4	-0.05567421
37	0xbd93f20a	-0.072239
38	0xbdb08d12	-0.08620657
39	0x3d481a18	0.04885301
40	0x3e55d2ea	0.20881239
41	0xbe0b2e5a	-0.135919
42	0xbe56d6b9	-0.20980348
43	0xbe00794f	-0.12546276
44	0xbe0e2196	-0.1388
45	0xbe49bf2b	-0.19701831
46	0x3d9425dc	0.072337836
47	0x3cf1fa48	0.029538289
48	0x3df56d50	0.1198374
49	0xbde551ca	-0.11197241
50	0x3e10501e	0.14093062
51	0xbd5c1414	-0.053730085
52	0xbe586ca8	-0.21135199
53	0xbded381b	-0.11582967
54	0x3db16b3c	0.086630315
55	0x3d99a8e8	0.075029194
56	0x3d30ea30	0.04319209
57	0x3e375a00	0.17905426
58	0xbccff6a0	-0.025386155
59	0xbd9b9fac	-0.07598814
60	0xbe2dd435	-0.16975482
61	0x3d2be7c0	0.04196906
62	0x3e53a05a	0.20666638
63	0x3da7ce20	0.08193612
64	0xbd6ee34c	-0.058322236
65	0xbdc108d6	-0.094255134
66	0xbd34d740	-0.04415059
67	0x3dfee424	0.12445858
68	0xbe2b4389	-0.16724981
69	0x3e212696	0.15737376
70	0x3c208230	0.009796664
71	0x3dbc6904	0.09199718
72	0x3e0f392a	0.1398665
73	0x3d941a90	0.07231629
74	0xbe2efd09	-0.17088713
75	0x3d8b9458	0.06815404
76	0xbdd99e8c	-0.106259435
77	0xbdfd39bb	-0.12364527
78	0x3df63da0	0.12023473
79	0x3a832880	0.0010006577
80	0x3da1b980	0.078967094
81	0x3c930d58	0.017950699
82	0x3e343684	0.17598921
83	0xbdf07704	-0.117414504
84	0xbb2380c0	-0.0024948567
85	0x3e0ac794	0.13552696
86	0x3e0a8326	0.13526592
87	0xbde01133	-0.109407805
88	0x3de61a98	0.11235541
89	0x3e03f4c0	0.12886333
90	0xbe527213	-0.20551328
91	0x3dd9f1a8	0.106417954
92	0x3e35ed10	0.17766213
93	0xbd040a70	-0.032236516
94	0xbcb09840	-0.021556973
95	0xbe39b5c4	-0.18135744
96	0x3d8762f0	0.06610668
97	0x3e449b78	0.19199932
98	0xbd9d5414	-0.07682052
99	0x3de88b08	0.11354643
100	0xbe579d0c	-0.21056002
101	0xbd1367bc	-0.0359876
102	0xbe1c959b	-0.15291445
103	0x3e0e56d2	0.13900307
104	0xbd47d4bc	-0.048786864
105	0xbd025060	-0.031814933
106	0xbc9f2f40	-0.01943171
107	0xbd2500ec	-0.040284082
108	0xbc646b30	-0.013941571
109	0x3e04fd8c	0.12987345
110	0xbe0e7a33	-0.13913803
111	0xbdb04ee2	-0.08608796
112	0xbd3f0e44	-0.046644464
113	0xbd9573e8	-0.07297498
114	0xbd5e720c	-0.054307982
115	0xbe4353fc	-0.19075006
116	0xbe13b182	-0.14423183
117	0xbcc5e4e8	-0.024157003
118	0x3e2641f8	0.16236103
119	0xbd89f180	-0.067355156
120	0xbdc4ec5d	-0.09615395
121	0x3ddf3848	0.10899407
122	0x3dab91b0	0.08377397
123	0xbcd29c58	-0.025709316
124	0x3de5cb18	0.11220378
125	0xbe524fc2	-0.20538238
126	0x3dd96268	0.10614473
127	0xbe4f056a	-0.20216909
128	0xbbd28f20	-0.0064257532
129	0xbe2e2c62	-0.17009118
130	0x3e35806a	0.17724767
131	0x3e17e554	0.14833575
132	0xbe37dfa6	-0.17956409
133	0xbe39dd3d	-0.18150802
134	0x3da26410	0.07929242
135	0x3e338dce	0.17534563
136	0x3dda3a7c	0.10655686
137	0x39ede800	0.00045377016
138	0xbd197634	-0.037466243
139	0xbe2581e1	-0.16162826
140	0xbe20fabc	-0.15720648
141	0xbdd6a0f5	-0.10479919
142	0x3e361ada	0.1778368
143	0x3e4d9e3c	0.20079893
144	0x3e4dd7e4	0.20101887
145	0xbd388bd8	-0.04505524
146	0x3e2c2474	0.16810781
147	0xbd9bc480	-0.07605839
148	0x3d4100c0	0.047119856
149	0xbd76a244	-0.060213342
150	0x3e3d6750	0.18496442
151	0x3e288bc2	0.16459563
152	0x3d97a258	0.074040115
153	0xbe253f02	-0.16137317
154	0x3de11564	0.10990408
155	0x3e13e5f4	0.14443189
156	0xbd3996e8	-0.04530993
157	0x3d0d190c	0.034447715
158	0xbd8544c0	-0.06507254
159	0xbe3139d8	-0.17307222
160	0xbe16105c	-0.14654678
161	0xbe1dd5b7	-0.15413557
162	0xbcf0f408	-0.029413238
163	0x3dafed10	0.08590138
164	0xbdacf8e2	-0.08445908
165	0xbda24df2	-0.07925023
166	0xbe3ee2ec	-0.18641251
167	0xbdc1f139	-0.09469838
168	0xbe14d2a4	-0.14533478
169	0xbc1fc710	-0.00975205
170	0x3e3412a2	0.17585233
171	0x3e214402	0.15748599
172	0xbdcccfc6	-0.10000567
173	0x3c8b00f8	0.016968235
174	0x3d778d98	0.06043777
175	0x3c325010	0.010883346
176	0xbe179ddc	-0.14806312
177	0xbdf01eb6	-0.11724608
178	0x3e0c438c	0.13697642
179	0xbd855f78	-0.0651235
180	0xbe0b9622	-0.1363149
181	0xbe560530	-0.20900416
182	0x3e3fedf2	0.18743113
183	0x3defce9c	0.117093295
184	0xbe033ac0	-0.1281538
185	0x3d08da64	0.0334114
186	0x3dcb9f90	0.099425435
187	0xbe1bc8f8	-0.15213382
188	0x3d0cb3ac	0.034351036
189	0x3c5cffe0	0.01348874
190	0xbd156e8c	-0.03648238
191	0x3cfa8fa0	0.030586064
192	0x3d0bfe28	0.03417793
193	0x3d8ee218	0.06976718
194	0x3de03344	0.10947278
195	0xbd0a8ecc	-0.033827588
196	0x3e2ca870	0.16861129
197	0xbe0da468	-0.13832247
198	0x3da5e560	0.081003904
199	0xbe1468f1	-0.14493157
200	0xbdea97fe	-0.114547715
201	0xbe243458	-0.16035593
202	0xbd53d680	-0.051718235
203	0x3dcf97c4	0.10136369
204	0xbe1717ea	-0.14755216
205	0x3e3b3f3a	0.18285838
206	0xbdf92894	-0.12165943
207	0x3d5ba148	0.053620607
208	0xbe1f114a	-0.15533939
209	0xbbe6b980	-0.0070411563
210	0xbe3fcc58	-0.18730295
211	0x3e049c3c	0.12950224
212	0x3e514354	0.2043584
213	0xbd859154	-0.0652186
214	0xbe065bf4	-0.13121015
215	0xbd5997d4	-0.05312331
216	0x3e32d6ea	0.17464796
217	0xbe39f471	-0.18159653
218	0xbce00b38	-0.0273491
219	0x3e39ee84	0.18157393
220	0x3d125104	0.035721794
221	0x3d611450	0.054951012
222	0xbd949fb4	-0.072570235
223	0x3e03ff40	0.12890339
224	0x3e16bf94	0.14721519
225	0xbbd3bb40	-0.006461531
226	0xbccdf488	-0.025141016
227	0x3dba1370	0.09085739
228	0xbe20eb34	-0.15714723
229	0xbd84c986	-0.0648375
230	0xbdb2df00	-0.0873394
231	0x3e2888d6	0.16458449
232	0xbce96410	-0.028490096
233	0x3e385ea0	0.18004847
234	0xbe40965a	-0.18807355
235	0x3e3920d8	0.18078935
236	0xbe2dde41	-0.16979314
237	0x3d28d8c0	0.041222334
238	0x3e4ef132	0.20209196
239	0x3e4251aa	0.18976465
240	0xbda518e2	-0.08061387
241	0x3e192da0	0.14958811
242	0xbd253328	-0.04033199
243	0xbe35d1b8	-0.17755783
244	0xbdc35238	-0.09537166
245	0x3e29b82e	0.16574165
246	0xbcffb228	-0.031212881
247	0xbbb0bca0	-0.0053935796
248	0xbcf22a40	-0.029561162
249	0x3d2a66e8	0.041602045
250	0x3d91e7ec	0.07124314
251	0x3b0c8e00	0.0021446943
252	0x38a54800	7.881224e-05
253	0x3e1481ea	0.14502683
254	0xbcad8ac8	-0.02118434
255	0xbd9edad6	-0.077565834

firstBlocks.1.1.weight f4 [16, 16, 1, 1]
0	0x3e6ead7c	0.23308367
1	0x3c04ff00	0.008117437
2	0xbe34fa56	-0.1767362
3	0xbe34feea	-0.17675367
4	0x3b65b400	0.0035049915
5	0xbe6b9308	-0.23005307
6	0xbcd1a2e0	-0.02559036
7	0x3e23433c	0.15943617
8	0xbe7821b8	-0.24231613
9	0xb90cb000	-0.00013417006
10	0x3e6939a8	0.227759
11	0xbcb9b600	-0.022669792
12	0xbe4d72be	-0.20063302
13	0xbdb8d524	-0.09025028
14	0xbe1592fa	-0.14606848
15	0xbdc295e4	-0.095012456
16	0xbd29ece8	-0.041485697
17	0x3dd9ca68	0.10634309
18	0xbe355eaa	-0.17711893
19	0x3b60fd80	0.0034330785
20	0xbe645dd0	-0.22301412
21	0xbe2c27d0	-0.16812062
22	0x3cfb9370	0.030709952
23	0x3e2b43ca	0.16725078
24	0xbc498e20	-0.012301952
25	0x3e60dbd4	0.21958858
26	0xbd5469b0	-0.051858604
27	0xbe556f1c	-0.20843166
28	0x3e5822aa	0.21106973
29	0xbcffc5f0	-0.031222314
30	0xbe4cb200	-0.19989777
31	0xbe344664	-0.17604977
32	0x3e513a60	0.20432425
33	0xbe14bf22	-0.14526036
34	0xbe132864	-0.14370877
35	0x3e5581c4	0.20850283
36	0xbd8c2fc4	-0.06845048
37	0xbe5898c4	-0.21152025
38	0x3d9a87d0	0.075454354
39	0x3e693bce	0.2277672
40	0xbe74c0da	-0.23901692
41	0x3d0ea810	0.034828246
42	0x3adb6a00	0.0016739964
43	0x3e7b6216	0.24549136
44	0x3d8b1730	0.06791532
45	0xbd5d5620	-0.054037213
46	0xbdc70020	-0.09716821
47	0xbe4b2b78	-0.19840801
48	0xbd3feed0	-0.04685861
49	0xbe30cd16	-0.17265734
50	0x3de3dcc0	0.11126089
51	0xbe068318	-0.13135946
52	0xbe6a3b7c	-0.22874254
53	0xbe58663e	-0.21132752
54	0x3da5ddcc	0.08098945
55	0x3d427ea8	0.04748407
56	0xbde4ec04	-0.11177829
57	0xbdc07da0	-0.09398961
58	0x3e573730	0.21017146
59	0xbe2c3d14	-0.16820174
60	0x3e5092e8	0.2036854
61	0x3e021800	0.12704468
62	0x3d211cb0	0.039334
63	0xbe46ae22	-0.19402364
64	0xbdd6b040	-0.10482836
65	0xbe5fc834	-0.21853715
66	0xbe215364	-0.15754467
67	0xbdb99180	-0.09060955
68	0xbe40a212	-0.18811825
69	0xbe7101d6	-0.23535857
70	0xbe0cd870	-0.1375444
71	0xbddac6b4	-0.10682431
72	0x3cf24d90	0.029578
73	0xbd8680fc	-0.065675706
74	0xbdd71f40	-0.10504007
75	0x3e6a6904	0.22891623
76	0xbe5ddd94	-0.21666557
77	0xbdd40030	-0.10351598
78	0xbdb4b304	-0.08823207
79	0xbbcf7700	-0.0063313246
80	0x3d800cf4	0.062524706
81	0xbde497d0	-0.111617684
82	0xbd27de70	-0.040983617
83	0xbdc21330	-0.09476316
84	0xbd2f7578	-0.042836636
85	0xbe3132d0	-0.1730454
86	0xbe2924b4	-0.16517907
87	0x3d7eb8f8	0.06218812
88	0x3e6b50fc	0.22980112
89	0x3e10393a	0.1408433
90	0xbe12dcec	-0.14342088
91	0xbd36d720	-0.044638753
92	0x3dc8a0d0	0.097962976
93	0xbe27acaa	-0.1637446
94	0x3d16dee8	0.036833674
95	0x3e2942ae	0.16529343
96	0x3e5e680c	0.21719378
97	0x3d25ccf0	0.040478647
98	0x3bd24840	0.0064173043
99	0x3e52507e	0.20538518
100	0xbdedb2ec	-0.11606392
101	0xbd4f6a98	-0.050638765
102	0x3e62bcd8	0.2214235
103	0x3abd9000	0.0014462471
104	0x3e1b7d76	0.15184578
105	0x3e58678c	0.2113325
106	0xbe5b0820	-0.21389818
107	0xbe2d937e	-0.16950795
108	0x3e227a1a	0.1586689
109	0xbda1b730	-0.07896268
110	0xbe3a81ee	-0.18213627
111	0x3e77060a	0.24123397
112	0x3afa0300	0.001907438
113	0xbe4b5966	-0.19858322
114	0xbc83a3b0	-0.016069263
115	0x3e45ec02	0.19328311
116	0xbd1c5b00	-0.038172722
117	0x3e371160	0.17877722
118	0xbe20ac24	-0.15690666
119	0xbddd2874	-0.107987314
120	0x3ca7b1e0	0.02047056
121	0x3d0699a0	0.032861352
122	0xbcd640a0	-0.026153862
123	0xbe49defe	-0.19713971
124	0xbe11631a	-0.1419796
125	0xbdf0d804	-0.11759952
126	0xbe747afa	-0.23875037
127	0xbdcfb838	-0.10142559
128	0xbd49fba0	-0.049312234
129	0x3ded1efc	0.115781754
130	0x3d91a490	0.07111466
131	0x3e6b0c4e	0.22953913
132	0xba95ee00	-0.0011438727
133	0xbe6960f8	-0.22790897
134	0x3deeec5c	0.11666176
135	0x3d2096b0	0.039206207
136	0xbd7a1658	-0.061056465
137	0x3e26a828	0.16275084
138	0x3e763d22	0.24046758
139	0x3e46b7cc	0.1940605
140	0x3dcd3ff0	0.10021961
141	0xbe68c64e	-0.22731897
142	0x3e17efce	0.14837572
143	0xbca26a30	-0.019826025
144	0x3d112da0	0.035443902
145	0xbe62d264	-0.2215057
146	0xbdf23e3c	-0.118282765
147	0xbe32ea38	-0.1747216
148	0xbd64a128	-0.055817753
149	0x3e398654	0.18117648
150	0xbe12d23a	-0.14338008
151	0x3d9f1694	0.07767978
152	0x3e7a27c6	0.24429235
153	0xbe7b989c	-0.24569935
154	0x3e072714	0.13198501
155	0xbd9b67e8	-0.07588178
156	0x3e70e502	0.2352486
157	0x3e7c0574	0.24611455
158	0x3db41984	0.08793929
159	0x3d3e3f38	0.04644701
160	0x3dc23054	0.09481874
161	0xbdc9ea44	-0.09859136
162	0x3e389584	0.18025786
163	0x3e48755a	0.19576016
164	0x3d2a5d28	0.041592747
165	0x3d7a4d68	0.061108977
166	0xbc6cc540	-0.014451325
167	0x3d9a65b0	0.075389266
168	0xbd903d90	-0.07042992
169	0x3d9fdc10	0.078056455
170	0xbe7619ee	-0.24033329
171	0x3e622374	0.22083837
172	0x3a15bc00	0.0005711913
173	0x3dd0e244	0.10199407
174	0xbd5be178	-0.05368182
175	0xbe4e6482	-0.20155528
176	0x3e7a6d28	0.24455702
177	0xbe6615c6	-0.22469243
178	0x3e63e738	0.22256172
179	0x3d5a1870	0.05324596
180	0x3e6046f0	0.2190206
181	0x3cd08070	0.025451869
182	0xbe77ade0	-0.24187422
183	0xbdb15b1c	-0.08659956
184	0x3e75dcd8	0.24010026
185	0x3e6e64a2	0.23280576
186	0x3d99e154	0.07513681
187	0x3d3fd6c8	0.04683569
188	0xbe11a20c	-0.14221972
189	0x3e6cb978	0.23117626
190	0xbe0734ae	-0.1320369
191	0xbda11b64	-0.078665525
192	0x3d2eeab8	0.042704314
193	0xbe186f38	-0.14886177
194	0x3e267968	0.1625725
195	0x3dfcf3ac	0.12351164
196	0xbd4495e8	-0.047994524
197	0x3e62f522	0.22163823
198	0xbe124734	-0.14284974
199	0x3dcbbbc8	0.09947926
200	0x3df67850	0.120346665
201	0xbddf1608	-0.10892874
202	0xbd8cd808	-0.06877142
203	0xbe4530dc	-0.1925692
204	0xbd89d8c0	-0.06730795
205	0x3c9c9de0	0.01911825
206	0xbd01e440	-0.031711817
207	0x3e574fe4	0.2102657
208	0x3e5ea74c	0.21743506
209	0xbe45438c	-0.19264048
210	0xbe3237c4	-0.17404085
211	0xbe32ba02	-0.17453769
212	0x3e1e485c	0.1545729
213	0x3e399778	0.18124187
214	0xbd5e1f00	-0.054228783
215	0xbe322bc2	-0.17399505
216	0x3d491770	0.049094617
217	0x3d24c238	0.040224284
218	0x3dc3e8b0	0.09565866
219	0xbe34a794	-0.17642051
220	0xbb747480	-0.0037300885
221	0xbdf87bb8	-0.121329725
222	0x3d7637e8	0.06011191
223	0xbd2589b8	-0.040414542
224	0xbd788138	-0.060670108
225	0xbd884d24	-0.066553384
226	0xbd6f3f58	-0.05841002
227	0x3da75510	0.08170521
228	0xbcf780e0	-0.03021282
229	0xbd73f548	-0.05956009
230	0x3dd92b84	0.10604003
231	0x3e4ccc80	0.19999886
232	0x3e482ea2	0.19549039
233	0xbd49bfc0	-0.049255133
234	0xbbffdac0	-0.0078080595
235	0x3e0eaa54	0.13932163
236	0xbe1e8e14	-0.15483886
237	0x3e737850	0.23776364
238	0xbdcff320	-0.10153794
239	0xbe21ebda	-0.15812626
240	0x3e673ad4	0.22581035
241	0xbe30690e	-0.17227575
242	0xbe01ed2c	-0.1268813
243	0x3ce271e0	0.02764219
244	0x3bd83c80	0.006599009
245	0x3c12cae0	0.008959502
246	0x3d8a7830	0.06761205
247	0x3da0ea30	0.07857168
248	0x3e73b04e	0.23797724
249	0xbe5e751c	-0.21724361
250	0x3e3d4e10	0.1848681
251	0xbe451c40	-0.19249058
252	0xbca650b0	-0.020302147
253	0xbe53b9a2	-0.20676282
254	0xbcdfa490	-0.02730015
255	0x3e38bb08	0.18040097

firstBlocks.1.2.weight f4 [16]
0	0x3f800000	1.0
1	0x3f800000	1.0
2	0x3f800000	1.0
3	0x3f800000	1.0
4	0x3f800000	1.0
5	0x3f800000	1.0
6	0x3f800000	1.0
7	0x3f800000	1.0
8	0x3f800000	1.0
9	0x3f800000	1.0
10	0x3f800000	1.0
11	0x3f800000	1.0
12	0x3f800000	1.0
13	0x3f800000	1.0
14	0x3f800000	1.0
15	0x3f800000	1.0

firstBlocks.1.2.bias f4 [16]
0	0x00000000	0.0
1	0x00000000	0.0
2	0x00000000	0.0
3	0x00000000	0.0
4	0x00000000	0.0
5	0x00000000	0.0
6	0x00000000	0.0
7	0x00000000	0.0
8	0x00000000	0.0
9	0x00000000	0.0
10	0x00000000	0.0
11	0x00000000	0.0
12	0x00000000	0.0
13	0x00000000	0.0
14	0x00000000	0.0
15	0x00000000	0.0

firstBlocks.1.2.running_mean f4 [16]
0	0x00000000	0.0
1	0x00000000	0.0
2	0x00000000	0.0
3	0x00000000	0.0
4	0x00000000	0.0
5	0x00000000	0.0
6	0x00000000	0.0
7	0x00000000	0.0
8	0x00000000	0.0
9	0x00000000	0.0
10	0x00000000	0.0
11	0x00000000	0.0
12	0x00000000	0.0
13	0x00000000	0.0
14	0x00000000	0.0
15	0x00000000	0.0

firstBlocks.1.2.running_var f4 [16]
0	0x3f800000	1.0
1	0x3f800000	1.0
2	0x3f800000	1.0
3	0x3f800000	1.0
4	0x3f800000	1.0
5	0x3f800000	1.0
6	0x3f800000	1.0
7	0x3f800000	1.0
8	0x3f800000	1.0
9	0x3f800000	1.0
10	0x3f800000	1.0
11	0x3f800000	1.0
12	0x3f800000	1.0
13	0x3f800000	1.0
14	0x3f800000	1.0
15	0x3f800000	1.0

lastLayer.0.weight f4 [2, 16, 1, 31]
0	0x3d335f3a	0.043791987
1	0xb8c90400	-9.585172e-05
2	0x3cb4b0a0	0.022056878
3	0xbcfda390	-0.030961782
4	0x3d25a5e8	0.040441424
5	0x3d1ddacc	0.03853874
6	0x3cfcd55c	0.030863456
7	0x3c84ccdc	0.016210966
8	0x3bb6b220	0.0055754334
9	0xbc7caa00	-0.0154213905
10	0xbd0b6810	-0.03403479
11	0xbc9775f8	-0.01848887
12	0x3d30ab16	0.04313191
13	0x3b133890	0.0022464134
14	0x3ceb53cc	0.02872648
15	0xbd088a34	-0.033334926
16	0x3d03a2be	0.032137625
17	0x3d172fd4	0.036910847
18	0x3a6dc940	0.0009070821
19	0xbd11a1a8	-0.035554558
20	0xbc964d3d	-0.018347377
21	0xbcc163be	-0.023607131
22	0xbcb75c18	-0.02238278
23	0x3cff93a0	0.031198323
24	0x3c96ff50	0.01843229
25	0xbaab0fc0	-0.0013050959
26	0xbcbd8b84	-0.023137815
27	0x3d1eba72	0.038752027
28	0x3a8d0280	0.0010758191
29	0x3cb63cb8	0.02224575
30	0x3d0a8478	0.03381774
31	0xbd0259f0	-0.031824052
32	0x3bf35e78	0.007427033
33	0x3cd94ca4	0.026525803
34	0x3c97fbc8	0.018552676
35	0xbcffcf96	-0.031226914
36	0x3ca00918	0.019535586
37	0xbcac1198	-0.021004483
38	0xbd1ddebe	-0.0385425
39	0xbc92e3a6	-0.017930817
40	0x3cd25e70	0.025679797
41	0xbc5c26a8	-0.013436951
42	0xbca7dc66	-0.020490836
43	0xbd2345b6	-0.039861403
44	0xbb039d50	-0.002008278
45	0x3d2a3ace	0.041559987
46	0xbd2cb043	-0.042160284
47	0x3d1e0648	0.03858021
48	0x3d2a57de	0.041587703
49	0xbc99d91f	-0.01878029
50	0xbc8797fe	-0.016551968
51	0xbca4e840	-0.020130277
52	0x3c6c2554	0.014413197
53	0xbd0c9f88	-0.03433183
54	0x3d0ad218	0.033891767
55	0xbd02ff3f	-0.031981703
56	0xbc18c230	-0.009323642
57	0xbcd6c2de	-0.026215967
58	0x3b1ea4b0	0.0024207048
59	0xbbf4a360	-0.007465765
60	0x3c4dad18	0.012553476
61	0x3c5a8690	0.013337746
62	0xbc8209ca	-0.015873808
63	0x3ce4f46c	0.02794858
64	0xbcb05450	-0.021524578
65	0xbd13d7c0	-0.036094427
66	0x3d203b46	0.039119028
67	0xbc229ea4	-0.009925518
68	0xbc915d5b	-0.01774471
69	0x3c22d3a8	0.009938158
70	0x3cbb6c94	0.022878923
71	0x3bb3cc18	0.0054869764
72	0xbcc3365b	-0.02382963
73	0xbc381304	-0.011235002
74	0xbd00a01e	-0.0314027
75	0xbd1b0623	-0.03784765
76	0x3aee74a0	0.0018192716
77	0xbcce245f	-0.025163827
78	0x3cb265a8	0.02177699
79	0x3d30c848	0.043159753
80	0xbcb4ec95	-0.022085467
81	0xbd0e6441	-0.03476358
82	0xbd3283cd	-0.043582726
83	0xbd22c806	-0.03974154
84	0x3c6074a8	0.013699688
85	0x3c0dcc3c	0.00865465
86	0x3bd9c7e8	0.006646145
87	0xbc8043fe	-0.015657421
88	0x3d09aabc	0.03361009
89	0xbd0a03cb	-0.033695024
90	0xbccd7e9b	-0.025084784
91	0xbc5c20bc	-0.013435539
92	0xbcd8f085	-0.026481876
93	0x3b8d4710	0.00431145
94	0x3c34da30	0.011038348
95	0xbc5cf87c	-0.013486978
96	0xbd32283a	-0.043495394
97	0x3d160602	0.036626823
98	0xbc7a42e0	-0.015274733
99	0x3b022df0	0.0019863807
100	0xbc72b26a	-0.014813045
101	0x3c7c17a4	0.015386496
102	0xbd375b11	-0.044764582
103	0x3d2f8d32	0.042859264
104	0x3d133746	0.035941385
105	0x3d290b0c	0.0412703
106	0x3d364b40	0.044505358
107	0x3c69d1a0	0.01427117
108	0xbc035968	-0.008016922
109	0xbc7b366c	-0.015332799
110	0x3bd159f8	0.006388899
111	0x3b76bdc0	0.003764972
112	0xb9cee580	-0.00039462373
113	0x3ce97938	0.028500184
114	0xbc986174	-0.018601157
115	0xbd004034	-0.03131123
116	0x3c8c1c96	0.017103475
117	0x3c889df0	0.016676873
118	0x3c8c0be4	0.017095514
119	0xbd03a1d7	-0.032136764
120	0x3c924960	0.017857254
121	0xbc82d781	-0.0159719
122	0xbcf50a74	-0.029912211
123	0x3cad2edc	0.021140508
124	0xbca62466	-0.020281028
125	0xbc9642e6	-0.018342447
126	0xbccb654f	-0.024828581
127	0x3d362bc8	0.044475347
128	0xbc1d70e8	-0.0096094385
129	0xbd3419ad	-0.0439698
130	0xbcd8d93d	-0.026470775
131	0x3b9285d0	0.004471518
132	0x3ca0792c	0.01958903
133	0x3c95bd90	0.018278867
134	0xbc8dac85	-0.017294178
135	0xbd1b2b6f	-0.03788322
136	0xbbf82738	-0.0075730346
137	0x3c3198f4	0.0108396895
138	0x3cb75380	0.022378683
139	0x3d324832	0.043525882
140	0xbc0e07b4	-0.008668829
141	0x3bc83f90	0.006111093
142	0xbd02ba3e	-0.031915896
143	0x3d17ffac	0.037109062
144	0xbc90aca5	-0.017660448
145	0xbc96db85	-0.018415222
146	0x3d32b348	0.043628007
147	0xbc73f7e8	-0.014890648
148	0x3c05034c	0.008118462
149	0xbd1bba41	-0.038019422
150	0x3d006a32	0.031351276
151	0x3c0fff10	0.008788839
152	0x3b5d2690	0.003374491
153	0x3bedbeb8	0.0072554015
154	0xbcdb69bb	-0.026783815
155	0x3d347cfa	0.0440645
156	0xbcad6d60	-0.021170318
157	0x3d020a24	0.031747952
158	0x3d11b334	0.035571292
159	0xbd16c07a	-0.036804654
160	0x3d289fc6	0.041167997
161	0xbc9a72a9	-0.018853502
162	0x3ba00828	0.004883785
163	0x3d041356	0.032245003
164	0x3ce2ed6c	0.027701102
165	0xbbafeeb0	-0.00536903
166	0x3cca5b88	0.024701849
167	0xbcddc95b	-0.027073553
168	0x3b884bf0	0.004159443
169	0xbd09e7af	-0.033668216
170	0xbd004d7e	-0.031323902
171	0xbccd4ed5	-0.025062004
172	0x3c596b98	0.013270281
173	0xbbbccfc8	-0.005762074
174	0xbc845ba1	-0.016156973
175	0x3cdea478	0.027178034
176	0xbcac5f0f	-0.021041421
177	0x39b27d80	0.0003404431
178	0xbd05d658	-0.032675117
179	0x3aeecaa0	0.0018218346
180	0xbd108de2	-0.03529156
181	0x3d0dedce	0.034650616
182	0x3ca73668	0.020411685
183	0xbafe9300	-0.0019422472
184	0xbbd35858	-0.0064497404
185	0xbcd903c3	-0.026491052
186	0xbb7cf480	-0.0038597882
187	0x3d05c79a	0.032661058
188	0x38b72a00	8.733943e-05
189	0x3ca7f7c4	0.020503886
190	0xba14dd00	-0.00056786835
191	0xbccd66e3	-0.025073474
192	0x3d19e5b8	0.037572592
193	0x3d186818	0.037208647
194	0xbc4c50a8	-0.012470402
195	0xbcbaeeca	-0.022818942
196	0x3c5a9c74	0.013342965
197	0xbc1b437c	-0.009476539
198	0x3d18941c	0.037250623
199	0x3bcdcaf0	0.0062802956
200	0x3c63a33c	0.013893899
201	0xbc6ec8b0	-0.014574215
202	0x3d02a85c	0.03189884
203	0x3d2f1bd6	0.042751156
204	0x3c538010	0.01290895
205	0x3d0317cc	0.032005116
206	0xbbe78868	-0.0070658214
207	0x3d01c95e	0.03168618
208	0x3cd7ec90	0.026357919
209	0x3cd2b1b4	0.025719501
210	0xbd15478a	-0.036445178
211	0x3d13fb12	0.03612811
212	0xbd133782	-0.03594161
213	0xbc5ea698	-0.013589524
214	0x3c976d30	0.018484682
215	0x3b1c04d0	0.002380658
216	0x3caca558	0.021074936
217	0x3d300c98	0.04298076
218	0x3c9869ac	0.018605076
219	0xb9fd0680	-0.00048260763
220	0x3c280664	0.01025543
221	0x3d180418	0.03711328
222	0xbabe77c0	-0.0014531538
223	0x3d2c36b8	0.04204437
224	0x3cb4f340	0.022088647
225	0xbbd828d0	-0.006596662
226	0x3d233a40	0.039850473
227	0xbbd4c830	-0.006493591
228	0xbc88c886	-0.01669718
229	0x3d32306c	0.04350321
230	0x3c1a1e8c	0.009406697
231	0xbd2f8a76	-0.042856656
232	0xbd08c8bb	-0.033394556
233	0x3cbfa284	0.023392923
234	0x3cd05d50	0.02543512
235	0x3d13935e	0.036029212
236	0x3cb27cb8	0.021787986
237	0x3ab7cfe0	0.0014023744
238	0xbbd80058	-0.006591838
239	0x3d106180	0.035249233
240	0x3c4238a0	0.011854321
241	0xbcb94911	-0.022617849
242	0x3bcd7b60	0.006270811
243	0xbcda7022	-0.026664797
244	0x3cb46508	0.022020832
245	0x3d289f42	0.041167505
246	0x3d25ad16	0.04044827
247	0x3d2d8862	0.042366393
248	0xbccc63b8	-0.024949893
249	0x3cf7b0e0	0.030235708
250	0x3c0c2bf8	0.008555405
251	0xbb03d680	-0.0020116866
252	0xbc055c0c	-0.0081396215
253	0x3cbc4e50	0.022986561
254	0xbd23c07e	-0.039978497
255	0xbcb77d07	-0.022398485

lastLayer.0.bias f4 [2]
0	0x3d348280	0.044069767
1	0x3c274d60	0.010211319
