codes/netInitModels/eegNet_0.pth (torch_old, 19730 bytes, 18 tensors)

firstBlocks.0.0.weight f4 [8, 1, 1, 125]
000000 a3 97 46 bd 06 6e 7b 3d 1a 7c 6d 3d 16 0c 36 3d
       -0.048484456 0.061384223 0.05797968 0.04444512
000010 35 fa b0 3d 7f b4 a0 3d 82 a0 6f 3d 2a 90 25 3d
       0.08641473 0.07846927 0.05850268 0.04042069
000020 88 a5 d7 3c a3 9e 2a bd 04 2d a5 bd fe a4 34 3d
       0.026324049 -0.041655194 -0.08065227 0.04410266
000030 17 f7 80 3d d0 22 98 bd ee c3 69 3d 42 13 16 3d
       0.06297129 -0.07428515 0.05707162 0.03663946
000040 e4 bf ec 3c 8c e4 fd bc 64 ea 85 bc d4 d1 34 bd
       0.028900094 -0.030992769 -0.016347118 -0.04414542
000050 7e dd 12 3d 88 07 c8 3c b8 b5 21 3c 64 66 78 bd
       0.035855763 0.024417654 0.009869985 -0.060644522
000060 9a e5 89 bd 6e 56 6f 3d 49 19 80 bd e6 2c 57 bd
       -0.06733246 0.058432035 -0.06254823 -0.052533053
000070 30 63 6b bc f8 e4 da bc 30 2a d2 bb 0e 35 31 3d
       -0.01436691 -0.026720509 -0.0064137205 0.043263488
000080 b6 0a 32 3d 60 59 e7 3b 4d 6e 9a 3d a8 26 44 3c
       0.043467246 0.007060215 0.075405695 0.011972107
000090 25 68 85 3d dc 9b a4 bd 54 37 52 bd 34 3a 60 bd
       0.065140046 -0.0803754 -0.051322296 -0.054743007
0000a0 e0 a7 bc bc e1 0b 98 3d 80 8a 06 ba 2c b8 b3 bd
       -0.023029268 0.07424141 -0.00051323324 -0.08775362
0000b0 04 bc 8f bc de 9e 5b bd 1c 53 fd 3c 4b 3b b1 3d
       -0.017545708 -0.053618304 0.030923419 0.08653887
0000c0 df ba 82 3d dc d3 95 bc 96 62 79 3d 65 62 94 3d
       0.06383299 -0.018289499 0.060885035 0.0724533
0000d0 e5 0e ab bd fb fe 91 3d 36 3a 21 3d 6c 05 a0 3c
       -0.0835245 0.07128712 0.039362155 0.019533835
0000e0 80 08 30 bc 28 e5 b6 bd 42 cf 43 3d a0 66 a5 3c
       -0.010744214 -0.08930427 0.04780508 0.020190537
0000f0 91 d9 69 bd 38 73 96 bc d6 a3 39 bd 00 81 34 3a
       -0.057092253 -0.018365487 -0.04532226 0.00068856776
000100 b8 e1 47 3c 98 27 5c bc 81 7a 90 3d 5c 43 98 3c
       0.012199812 -0.013437174 0.07054616 0.018586807
000110 53 03 65 bd 10 8b 9c bd c4 64 4f bd 1c 83 ef bc
       -0.055911373 -0.076437116 -0.050633207 -0.029237323
000120 d2 6c 74 3d 36 f7 89 bd 8e fa 79 bd 40 d0 1a bc
       0.05967409 -0.06736605 -0.061029963 -0.009449065
000130 40 d6 93 3b 73 03 0e bd 3f 09 a1 bd d0 a9 92 bd
       0.0045116246 -0.03467126 -0.07863092 -0.071612954
000140 c0 1b 24 bd 53 f7 aa bd 86 e2 19 bd 77 29 85 3d
       -0.040065527 -0.083479546 -0.037569545 0.065020494
000150 4a ee 0f 3d 38 9d 72 bd e5 0b 9a 3d 06 f0 68 3d
       0.03513936 -0.059231967 0.075218 0.05686953
000160 19 41 93 3d 0a 59 2b 3d 7d 8b 68 bd 7a c5 4a 3d
       0.07190151 0.04183296 -0.05677365 0.049504735
000170 b6 3c 6d 3d 87 84 b2 3d e8 22 b7 3c e6 1c 5b bd
       0.057919227 0.08716684 0.022355512 -0.053494357
000180 a8 2e 28 bc 62 2a a7 bd 1c 96 97 bd 20 1a b8 3b
       -0.01026503 -0.08162381 -0.07401678 0.0056183487
000190 ac 41 93 bc 20 a4 d6 bc 60 ff ac bd e1 24 a4 bd
       -0.01797565 -0.026201308 -0.084471464 -0.080148466
0001a0 f6 8b 68 3d 30 2a b3 bd b8 a7 08 3c 64 8d 35 bd
       0.056774102 -0.08748281 0.0083407685 -0.044324294
0001b0 95 c6 ac bd 72 ec 72 3d 76 60 37 bd 5b bc 21 bd
       -0.08436314 0.059307523 -0.044769727 -0.03948627
0001c0 92 1e 76 3d 84 cc 2c bd f0 87 ea 3b fa bf 1a 3d
       0.060087748 -0.04218723 0.0071573183 0.03778074
0001d0 00 1c 5e b9 57 ca 34 bd 10 45 fa bb d2 f5 7a 3d
       -0.00021182 -0.04413828 -0.0076376274 0.06126959
0001e0 fc f1 fc bc 02 44 27 3d b8 80 67 3c 9b 52 a3 3d
       -0.030877106 0.04083634 0.01412981 0.0797474
0001f0 8e 1e 10 3d f4 59 04 bd 30 f1 80 bc 80 e0 89 ba
       0.03518539 -0.03231235 -0.015740007 -0.0010519177
000200 e6 c4 76 3d b8 64 a4 bc b6 13 aa bd 4e 99 b0 bd
       0.06024637 -0.020067558 -0.08304541 -0.086229905
000210 d6 65 67 3d 80 89 41 bd c4 32 49 bd e2 12 af bd
       0.056493603 -0.04725027 -0.04912068 -0.085485235
000220 e1 91 6f bd fa 8f 73 3d 20 e1 63 bd eb 0e a6 bd
       -0.05848873 0.05946348 -0.055634618 -0.08108314
000230 5f 38 8d 3d 3e 6c 69 3d d8 c9 48 bc 74 f4 c8 3c
       0.068955176 0.056987993 -0.012255155 0.024530627
000240 36 f4 12 3d ce c9 9e bd 1a 2f 01 bd d8 4e 25 bc
       0.03587743 -0.07753335 -0.03153906 -0.010089599
000250 f7 b9 98 3d 08 17 7e bc 7b 5e 58 bd 76 09 28 3d
       0.07457345 -0.015508421 -0.05282448 0.041024648
000260 a8 89 5e 3c c6 1d 5b 3d b0 97 fc 3c 9c b6 7b bd
       0.0135826245 0.05349519 0.030834049 -0.061453447
000270 c9 72 6a bd 6a 6c 51 bd 7c 01 95 bc 00 08 1d bc
       -0.057238374 -0.051128782 -0.018189184 -0.009584427
000280 29 57 a4 3d 0f 96 97 3d 2b 87 96 bd 70 4c 92 3b
       0.08024437 0.07401668 -0.0735 0.0044646785
000290 20 22 b1 bd 68 4a a7 bd 08 21 83 bc 76 de 52 bd
       -0.08649087 -0.08168489 -0.016006961 -0.051481687
0002a0 06 f8 65 3d 89 1d 2b bd ba 00 29 3d 20 a4 d8 bb
       0.056144737 -0.041776214 0.04126046 -0.006611362
0002b0 25 08 ae 3d 10 70 37 3c a2 84 b6 bd 17 e8 ac bd
       0.08497647 0.011196151 -0.089120165 -0.08442705
0002c0 00 98 17 b9 68 95 13 3c fa 59 5c 3d 40 bf d5 bb
       -0.00014457107 0.009007789 0.053796746 -0.006523043
0002d0 9b 1e 91 3d ba 0f 66 3d bb ae 62 bd 48 b7 6b bd
       0.07085916 0.05616734 -0.055342417 -0.057547837
0002e0 61 32 99 3d d8 98 f7 3c 51 58 a7 3d 00 da 22 3b
       0.07480312 0.030224249 0.08171142 0.0024849176
0002f0 76 ab 0f 3d 9d a4 90 3d 52 2c 52 3d 22 9f 90 bd
       0.035075627 0.070626475 0.0513118 -0.07061602
000300 59 75 78 bd 6d d2 a4 bd 30 eb 8d 3b 00 86 a4 b9
       -0.060658786 -0.08047948 0.004331015 -0.00031380355
000310 d0 ba 8b bc 00 c2 b3 bb 05 c3 88 3d 97 e3 06 bd
       -0.017056853 -0.005485773 0.06677822 -0.03293189
000320 68 3e fc bc bf c1 0f bd 20 96 be 3b e2 dc 6c 3d
       -0.030791476 -0.03509688 0.005816236 0.057827838
000330 a0 b1 f7 bb a0 76 47 bd b8 9c 38 3c 68 d6 e6 3c
       -0.0075590163 -0.048697114 0.011267833 0.028178409
000340 d5 2a 1e bd c8 6d 02 bc 5a f4 3f 3d 08 b0 7c 3c
       -0.038615067 -0.007960744 0.04686389 0.0154228285
000350 c9 10 b5 bd 63 54 b5 3d b2 97 7d 3d 6c 7e 0d 3d
       -0.08841092 0.08853986 0.061912246 0.034544393
000360 16 f1 75 3d 07 ff 02 bd d2 cc 20 3d 9f 38 ac bd
       0.06004437 -0.031981494 0.039257832 -0.08409237
000370 5e c9 39 3d 9d 4d a4 3d 58 e3 14 bd cc aa d4 bc
       0.045358054 0.08022616 -0.036349624 -0.025960349
000380 27 19 92 3d 0a af 2f 3d 89 ea 11 bd 40 33 66 bb
       0.07133704 0.04289154 -0.03562406 -0.0035125762
000390 44 ed a0 3c ef 90 88 3d b3 9d 8c 3d c4 45 97 3c
       0.019644387 0.06668269 0.06866016 0.018465884
0003a0 98 29 d7 bc a0 e2 09 bd f0 d0 8e bd 62 7f 80 bd
       -0.02626495 -0.033663392 -0.069734454 -0.06274296
0003b0 f0 05 e0 3c 0e a0 95 bd a4 45 a3 3c 1a 72 30 3d
       0.027346581 -0.07305919 0.019930668 0.043077566
0003c0 99 7d a8 bd 90 bf 47 3c d4 71 b9 bc 00 97 f6 3c
       -0.08227081 0.012191668 -0.022637285 0.0301013
0003d0 b2 23 59 3d 10 ac 44 bc fe 98 aa bd fe ea 6e 3d
       0.053012557 -0.0120039135 -0.08329962 0.058329575
0003e0 bc fd 8c bc 00 19 18 3c a0 72 1e 3c 56 ce 88 bd
       -0.017210834 0.009283304 0.009670883 -0.066799805
0003f0 86 00 81 bd 0c b9 b7 bc 01 42 9b bd 10 d4 2f bd
       -0.06298928 -0.022427104 -0.075809486 -0.042926848

firstBlocks.0.1.weight f4 [8]
000000 00 00 80 3f 00 00 80 3f 00 00 80 3f 00 00 80 3f
       1.0 1.0 1.0 1.0
000010 00 00 80 3f 00 00 80 3f 00 00 80 3f 00 00 80 3f
       1.0 1.0 1.0 1.0

firstBlocks.0.1.bias f4 [8]
000000 00 00 00 00 00 00 00 00 00 00 00 00 00 00 00 00
       0.0 0.0 0.0 0.0
000010 00 00 00 00 00 00 00 00 00 00 00 00 00 00 00 00
       0.0 0.0 0.0 0.0

firstBlocks.0.1.running_mean f4 [8]
000000 00 00 00 00 00 00 00 00 00 00 00 00 00 00 00 00
       0.0 0.0 0.0 0.0
000010 00 00 00 00 00 00 00 00 00 00 00 00 00 00 00 00
       0.0 0.0 0.0 0.0

firstBlocks.0.1.running_var f4 [8]
000000 00 00 80 3f 00 00 80 3f 00 00 80 3f 00 00 80 3f
       1.0 1.0 1.0 1.0
000010 00 00 80 3f 00 00 80 3f 00 00 80 3f 00 00 80 3f
       1.0 1.0 1.0 1.0

firstBlocks.0.2.weight f4 [16, 1, 22, 1]
000000 f6 6e 29 be 14 e2 1c 3e a8 0f 2c be 90 b8 68 3d
       -0.16546234 0.15320617 -0.16802847 0.056816638
000010 86 3f b2 bd 20 a0 79 3d 48 9c 9c 3c 34 70 03 3e
       -0.087035224 0.060943723 0.01911749 0.12835771
000020 40 23 2c bb 4f 5e 28 be 90 54 7e bd a0 6b 0b 3e
       -0.0026266128 -0.16442226 -0.062092364 0.13615274
000030 f0 fe 58 bd 84 90 07 bd d0 44 0b 3e d0 f7 62 bd
       -0.052977502 -0.033096805 0.13600469 -0.055412114
000040 42 97 0e 3e 14 29 de 3d c7 9a 0b be 46 94 36 be
       0.13924888 0.10847679 -0.13633262 -0.1783
000050 22 ea 27 3e 88 08 45 3e 15 dd b6 bd 18 0c ab bd
       0.16397908 0.19241536 -0.08928887 -0.08351916
000060 d4 6f f3 3d 74 e7 9c 3d 18 a8 4f 3d a3 e2 3f be
       0.11886564 0.07661334 0.050697416 -0.18738799
000070 58 c6 b9 3d f0 94 98 3d 2c ee 4a be 06 e6 2e be
       0.09071034 0.074502826 -0.19817418 -0.17079934
000080 19 73 dd bd e8 34 0a bd fe 3d a3 bd d8 a3 c0 bd
       -0.10812969 -0.03374186 -0.079708084 -0.09406251
000090 58 be 38 be b4 10 f9 3d 64 4d c8 3d cb 90 fa bd
       -0.1804136 0.12161389 0.09780386 -0.12234648
0000a0 bd 66 2a be 20 06 4c 3e 00 b9 94 3d 42 a9 e5 bd
       -0.16640754 0.19924212 0.072618484 -0.11213924
0000b0 a0 cc 03 be 40 f9 01 3d 24 1e ce 3d e2 bb 55 3e
       -0.12871027 0.031731844 0.100643426 0.20872453
0000c0 18 5b 04 3e bc e7 f1 3d db 20 de bd b6 d2 0e be
       0.12925375 0.11811778 -0.108461104 -0.13947567
0000d0 54 db 16 3e ce 48 cb bd 8b 13 bc bd 10 9c 8e bd
       0.14732105 -0.09925996 -0.09183415 -0.0696336
0000e0 f8 29 ee bd f0 cb 0d 3e c0 ac 5c bb 98 e0 dd 3d
       -0.11629099 0.13847327 -0.0033672303 0.108338535
0000f0 78 15 ba 3d a0 82 c0 3c 60 7d 9a bd c9 87 08 be
       0.09086126 0.023499787 -0.07543445 -0.13333048
000100 60 0f 28 3e 42 6d b2 bd 00 af f0 bc 05 a6 fa bd
       0.16412115 -0.087122455 -0.029380322 -0.12238697
000110 3c 7f e0 3d 6b 03 c8 bd c8 43 d8 3d e8 56 14 3d
       0.10961768 -0.09766277 0.10559803 0.036215693
000120 38 95 3b 3e 30 d8 c0 3d 0e 94 47 3e 5e 84 20 3e
       0.18318641 0.094162345 0.19490072 0.15675494
000130 40 fc 0e bd a0 34 45 3c 74 cf 94 3d ee d8 04 be
       -0.034908533 0.012036473 0.07266131 -0.12973377
000140 1c 41 1c 3e 54 67 d8 bd 26 d0 e1 bd 98 f5 4d 3d
       0.15259212 -0.10566583 -0.11026029 0.050283045
000150 96 b5 25 be c4 0a 0a 3d f0 f6 0e be 24 f6 2c bd
       -0.16182551 0.033701673 -0.13961387 -0.042226925
000160 4c 76 85 bd a4 5d 42 3e 8c 7e 8a 3d 58 2f 4a be
       -0.06516704 0.18981034 0.06762418 -0.19744623
000170 38 67 22 3d 58 f1 1a 3e f8 f3 8e 3d b8 6c 34 3e
       0.03964922 0.15131128 0.06980127 0.17619598
000180 c0 f6 a4 3d 30 1e 2b 3d a7 01 5a be d8 7c d3 3d
       0.08054876 0.041776836 -0.21289693 0.103265464
000190 f9 f3 12 be cc 39 40 bd 48 b5 9f 3d f6 7f a0 bd
       -0.1435088 -0.04693012 0.077982485 -0.078369066
0001a0 78 58 65 3d 6c 72 5a bd f1 2d 46 be fb 64 f9 bd
       0.055992573 -0.053331777 -0.19353463 -0.121774636
0001b0 a0 17 1f be 70 16 27 3d 0e 7c 28 3e 50 7b 58 3e
       -0.15536356 0.040792882 0.16453573 0.2114079
0001c0 88 2a ef 3d 80 b6 d0 bb ca 35 f0 bd 78 f9 eb bc
       0.11678034 -0.006369412 -0.117290094 -0.02880548
0001d0 84 ad 0d 3d b4 30 c1 bd ac e0 14 3e b2 ec 9d bd
       0.034589306 -0.094331175 0.1453883 -0.07711162
0001e0 7a de 4f 3e 40 2a 4b 3e 25 01 3f be cc fb 14 3e
       0.20299712 0.19840336 -0.1865278 0.14549178
0001f0 b0 66 3e bc 90 fd 1e bd b0 7a 10 be 1d 4b e4 bd
       -0.011621162 -0.038816035 -0.14109302 -0.11147139
000200 24 5d 8c bd c8 2b ea 3c 28 26 52 3e fc 41 73 bd
       -0.06853703 0.02858533 0.20522368 -0.0593891
000210 a8 4f 02 3d f0 71 f9 3d cf 30 0a be 60 58 30 3d
       0.031814247 0.12179935 -0.13495182 0.04305303
000220 58 41 c1 bc cc b3 d1 3d 1c ee 48 3e a0 fc 9b 3d
       -0.023590729 0.10239372 0.19622082 0.07616544
000230 e4 e4 00 be 04 7e 84 3d 40 01 0b be a0 23 71 3d
       -0.12587315 0.06469348 -0.13574696 0.058871865
000240 de 88 06 3e 10 52 34 bd 2e d9 42 be 0c 09 21 3e
       0.13138148 -0.044023573 -0.1902816 0.15726107
000250 f3 2d 1b be f3 11 e6 bd 10 82 21 be 90 06 0f 3d
       -0.15154247 -0.11233892 -0.15772271 0.034918368
000260 70 49 1c 3c 00 4a 9b 39 62 d4 24 3e 40 1c db bb
       0.009538993 0.00029619038 0.16096643 -0.0066867173
000270 a7 53 f0 bd d0 1d 16 3e 60 a4 24 bc f1 59 1a be
       -0.117347054 0.1465981 -0.010048956 -0.15073372
000280 00 b4 cc bc 80 74 b8 3a d6 28 0f 3e 10 25 14 3e
       -0.024988174 0.0014072806 0.13980421 0.14467263
000290 1c 5b 03 be 22 a0 0c 3e 2a af a1 bd fe 53 d8 bd
       -0.12827724 0.13732961 -0.07894738 -0.10562895
0002a0 e0 1c b0 bc 60 78 24 3e 84 76 21 3e bc 0c 4d be
       -0.021498144 0.16061544 0.15767866 -0.20024389
0002b0 24 a0 9c bd d6 58 09 be 10 d4 ab 3d 88 83 1d bd
       -0.07647732 -0.13412794 0.08390057 -0.038455516
0002c0 39 3c 39 be 18 5a 68 bd fc 70 52 3e d8 46 39 3d
       -0.1808938 -0.056726545 0.20550913 0.045233577
0002d0 c4 b0 ee 3d b0 d7 0f bc 00 6f 99 ba 20 96 f2 3c
       0.11654809 -0.008779451 -0.0011706054 0.0296126
0002e0 ba b3 45 be 15 5d 02 be 63 20 b6 bd 38 64 38 bd
       -0.19306841 -0.1273082 -0.08892896 -0.04501745
0002f0 56 8c 2c 3e b8 2e 36 bd 90 8b 08 3e e1 39 17 be
       0.16850409 -0.04447815 0.13334489 -0.14768173
000300 c0 fa ae 3b 2a 54 15 be 72 78 23 3e 2d c5 2b be
       0.0053399503 -0.14582887 0.15963915 -0.16774435
000310 40 49 bb bb 09 9e 38 be b0 ba 42 3d 34 50 9b bd
       -0.005715519 -0.18029036 0.04754132 -0.07583657
000320 88 7b f8 3d 70 28 6d 3d 38 21 39 3e c0 91 74 3d
       0.12132937 0.057899892 0.18079078 0.05970931
000330 60 81 a8 3c 08 61 bf bc 74 b0 e7 bd a4 24 74 bd
       0.020569503 -0.023361698 -0.11312953 -0.059605256
000340 c0 71 5c bb c0 d1 2b 3d 20 ff fc 3c 02 a9 3f 3e
       -0.0033637136 0.04194808 0.030883372 0.18716815
000350 aa 56 3d be 58 2d 99 3d 79 bb 3a be d9 87 4f be
       -0.18490091 0.07479352 -0.18235578 -0.20266666
000360 1c 64 1e be 32 03 8d bd c9 0b fa bd 00 ae 34 3b
       -0.15467876 -0.06885375 -0.12209279 0.0027569532
000370 a0 8c 66 3d aa 2a 2c 3e 3a c3 f5 bd b4 39 d9 3d
       0.056286454 0.1681315 -0.12000127 0.10606709
000380 80 ab 98 bd 0d a3 47 be a0 99 14 3e 0d d0 49 be
       -0.07454586 -0.19495793 0.14511728 -0.19708271
000390 40 87 a1 bc 96 be 44 3e f8 b9 48 3e 06 ab 39 be
       -0.019717813 0.19213328 0.19602191 -0.18131647
0003a0 c8 2c 9f 3c cf d4 52 be 98 2b 3e 3e f0 96 a9 3d
       0.019430533 -0.20588993 0.18571317 0.08280742
0003b0 be 50 a7 bd ec 5d 54 be 26 2b 3c 3e b8 20 3a 3e
       -0.08169697 -0.20738953 0.18375835 0.18176544
0003c0 4c f2 55 be 14 9c ea 3d 27 99 3a be 08 1c c3 3d
       -0.2089321 0.11455551 -0.18222485 0.09526831
0003d0 92 f8 b1 bd 00 42 41 bb 38 60 49 3e 8c 87 9c 3d
       -0.08689989 -0.0029488802 0.19665611 0.07643041
0003e0 c0 d5 7e 3d d0 b5 27 bc 36 45 51 3e 02 f6 13 be
       0.062215567 -0.010236219 0.20436558 -0.14449313
0003f0 55 be 00 be 54 82 7d bd 60 13 6f 3d 7a 14 36 3e
       -0.12572606 -0.06189187 0.058368087 0.17781249

firstBlocks.0.3.weight f4 [16]
000000 00 00 80 3f 00 00 80 3f 00 00 80 3f 00 00 80 3f
       1.0 1.0 1.0 1.0
000010 00 00 80 3f 00 00 80 3f 00 00 80 3f 00 00 80 3f
       1.0 1.0 1.0 1.0
000020 00 00 80 3f 00 00 80 3f 00 00 80 3f 00 00 80 3f
       1.0 1.0 1.0 1.0
000030 00 00 80 3f 00 00 80 3f 00 00 80 3f 00 00 80 3f
       1.0 1.0 1.0 1.0

firstBlocks.0.3.bias f4 [16]
000000 00 00 00 00 00 00 00 00 00 00 00 00 00 00 00 00
       0.0 0.0 0.0 0.0
000010 00 00 00 00 00 00 00 00 00 00 00 00 00 00 00 00
       0.0 0.0 0.0 0.0
000020 00 00 00 00 00 00 00 00 00 00 00 00 00 00 00 00
       0.0 0.0 0.0 0.0
000030 00 00 00 00 00 00 00 00 00 00 00 00 00 00 00 00
       0.0 0.0 0.0 0.0

firstBlocks.0.3.running_mean f4 [16]
000000 00 00 00 00 00 00 00 00 00 00 00 00 00 00 00 00
       0.0 0.0 0.0 0.0
000010 00 00 00 00 00 00 00 00 00 00 00 00 00 00 00 00
       0.0 0.0 0.0 0.0
000020 00 00 00 00 00 00 00 00 00 00 00 00 00 00 00 00
       0.0 0.0 0.0 0.0
000030 00 00 00 00 00 00 00 00 00 00 00 00 00 00 00 00
       0.0 0.0 0.0 0.0

firstBlocks.0.3.running_var f4 [16]
000000 00 00 80 3f 00 00 80 3f 00 00 80 3f 00 00 80 3f
       1.0 1.0 1.0 1.0
000010 00 00 80 3f 00 00 80 3f 00 00 80 3f 00 00 80 3f
       1.0 1.0 1.0 1.0
000020 00 00 80 3f 00 00 80 3f 00 00 80 3f 00 00 80 3f
       1.0 1.0 1.0 1.0
000030 00 00 80 3f 00 00 80 3f 00 00 80 3f 00 00 80 3f
       1.0 1.0 1.0 1.0

firstBlocks.1.0.weight f4 [16, 1, 1, 22]
000000 a1 a3 f3 bd f0 38 31 3d 1e 91 2f 3e d6 07 00 3e
       -0.11896444 0.04326719 0.17145202 0.12502989
000010 a4 0a 64 bd 0a f2 93 bd 12 8d b0 bd 18 1a 48 3d
       -0.05567421 -0.072239 -0.08620657 0.04885301
000020 ea d2 55 3e 5a 2e 0b be b9 d6 56 be 4f 79 00 be
       0.20881239 -0.135919 -0.20980348 -0.12546276
000030 96 21 0e be 2b bf 49 be dc 25 94 3d 48 fa f1 3c
       -0.1388 -0.19701831 0.072337836 0.029538289
000040 50 6d f5 3d ca 51 e5 bd 1e 50 10 3e 14 14 5c bd
       0.1198374 -0.11197241 0.14093062 -0.053730085
000050 a8 6c 58 be 1b 38 ed bd 3c 6b b1 3d e8 a8 99 3d
       -0.21135199 -0.11582967 0.086630315 0.075029194
000060 30 ea 30 3d 00 5a 37 3e a0 f6 cf bc ac 9f 9b bd
       0.04319209 0.17905426 -0.025386155 -0.07598814
000070 35 d4 2d be c0 e7 2b 3d 5a a0 53 3e 20 ce a7 3d
       -0.16975482 0.04196906 0.20666638 0.08193612
000080 4c e3 6e bd d6 08 c1 bd 40 d7 34 bd 24 e4 fe 3d
       -0.058322236 -0.094255134 -0.04415059 0.12445858
000090 89 43 2b be 96 26 21 3e 30 82 20 3c 04 69 bc 3d
       -0.16724981 0.15737376 0.009796664 0.09199718
0000a0 2a 39 0f 3e 90 1a 94 3d 09 fd 2e be 58 94 8b 3d
       0.1398665 0.07231629 -0.17088713 0.06815404
0000b0 8c 9e d9 bd bb 39 fd bd a0 3d f6 3d 80 28 83 3a
       -0.106259435 -0.12364527 0.12023473 0.0010006577
0000c0 80 b9 a1 3d 58 0d 93 3c 84 36 34 3e 04 77 f0 bd
       0.078967094 0.017950699 0.17598921 -0.117414504
0000d0 c0 80 23 bb 94 c7 0a 3e 26 83 0a 3e 33 11 e0 bd
       -0.0024948567 0.13552696 0.13526592 -0.109407805
0000e0 98 1a e6 3d c0 f4 03 3e 13 72 52 be a8 f1 d9 3d
       0.11235541 0.12886333 -0.20551328 0.106417954
0000f0 10 ed 35 3e 70 0a 04 bd 40 98 b0 bc c4 b5 39 be
       0.17766213 -0.032236516 -0.021556973 -0.18135744
000100 f0 62 87 3d 78 9b 44 3e 14 54 9d bd 08 8b e8 3d
       0.06610668 0.19199932 -0.07682052 0.11354643
000110 0c 9d 57 be bc 67 13 bd 9b 95 1c be d2 56 0e 3e
       -0.21056002 -0.0359876 -0.15291445 0.13900307
000120 bc d4 47 bd 60 50 02 bd 40 2f 9f bc ec 00 25 bd
       -0.048786864 -0.031814933 -0.01943171 -0.040284082
000130 30 6b 64 bc 8c fd 04 3e 33 7a 0e be e2 4e b0 bd
       -0.013941571 0.12987345 -0.13913803 -0.08608796
000140 44 0e 3f bd e8 73 95 bd 0c 72 5e bd fc 53 43 be
       -0.046644464 -0.07297498 -0.054307982 -0.19075006
000150 82 b1 13 be e8 e4 c5 bc f8 41 26 3e 80 f1 89 bd
       -0.14423183 -0.024157003 0.16236103 -0.067355156
000160 5d ec c4 bd 48 38 df 3d b0 91 ab 3d 58 9c d2 bc
       -0.09615395 0.10899407 0.08377397 -0.025709316
000170 18 cb e5 3d c2 4f 52 be 68 62 d9 3d 6a 05 4f be
       0.11220378 -0.20538238 0.10614473 -0.20216909
000180 20 8f d2 bb 62 2c 2e be 6a 80 35 3e 54 e5 17 3e
       -0.0064257532 -0.17009118 0.17724767 0.14833575
000190 a6 df 37 be 3d dd 39 be 10 64 a2 3d ce 8d 33 3e
       -0.17956409 -0.18150802 0.07929242 0.17534563
0001a0 7c 3a da 3d 00 e8 ed 39 34 76 19 bd e1 81 25 be
       0.10655686 0.00045377016 -0.037466243 -0.16162826
0001b0 bc fa 20 be f5 a0 d6 bd da 1a 36 3e 3c 9e 4d 3e
       -0.15720648 -0.10479919 0.1778368 0.20079893
0001c0 e4 d7 4d 3e d8 8b 38 bd 74 24 2c 3e 80 c4 9b bd
       0.20101887 -0.04505524 0.16810781 -0.07605839
0001d0 c0 00 41 3d 44 a2 76 bd 50 67 3d 3e c2 8b 28 3e
       0.047119856 -0.060213342 0.18496442 0.16459563
0001e0 58 a2 97 3d 02 3f 25 be 64 15 e1 3d f4 e5 13 3e
       0.074040115 -0.16137317 0.10990408 0.14443189
0001f0 e8 96 39 bd 0c 19 0d 3d c0 44 85 bd d8 39 31 be
       -0.04530993 0.034447715 -0.06507254 -0.17307222
000200 5c 10 16 be b7 d5 1d be 08 f4 f0 bc 10 ed af 3d
       -0.14654678 -0.15413557 -0.029413238 0.08590138
000210 e2 f8 ac bd f2 4d a2 bd ec e2 3e be 39 f1 c1 bd
       -0.08445908 -0.07925023 -0.18641251 -0.09469838
000220 a4 d2 14 be 10 c7 1f bc a2 12 34 3e 02 44 21 3e
       -0.14533478 -0.00975205 0.17585233 0.15748599
000230 c6 cf cc bd f8 00 8b 3c 98 8d 77 3d 10 50 32 3c
       -0.10000567 0.016968235 0.06043777 0.010883346
000240 dc 9d 17 be b6 1e f0 bd 8c 43 0c 3e 78 5f 85 bd
       -0.14806312 -0.11724608 0.13697642 -0.0651235
000250 22 96 0b be 30 05 56 be f2 ed 3f 3e 9c ce ef 3d
       -0.1363149 -0.20900416 0.18743113 0.117093295
000260 c0 3a 03 be 64 da 08 3d 90 9f cb 3d f8 c8 1b be
       -0.1281538 0.0334114 0.099425435 -0.15213382
000270 ac b3 0c 3d e0 ff 5c 3c 8c 6e 15 bd a0 8f fa 3c
       0.034351036 0.01348874 -0.03648238 0.030586064
000280 28 fe 0b 3d 18 e2 8e 3d 44 33 e0 3d cc 8e 0a bd
       0.03417793 0.06976718 0.10947278 -0.033827588
000290 70 a8 2c 3e 68 a4 0d be 60 e5 a5 3d f1 68 14 be
       0.16861129 -0.13832247 0.081003904 -0.14493157
0002a0 fe 97 ea bd 58 34 24 be 80 d6 53 bd c4 97 cf 3d
       -0.114547715 -0.16035593 -0.051718235 0.10136369
0002b0 ea 17 17 be 3a 3f 3b 3e 94 28 f9 bd 48 a1 5b 3d
       -0.14755216 0.18285838 -0.12165943 0.053620607
0002c0 4a 11 1f be 80 b9 e6 bb 58 cc 3f be 3c 9c 04 3e
       -0.15533939 -0.0070411563 -0.18730295 0.12950224
0002d0 54 43 51 3e 54 91 85 bd f4 5b 06 be d4 97 59 bd
       0.2043584 -0.0652186 -0.13121015 -0.05312331
0002e0 ea d6 32 3e 71 f4 39 be 38 0b e0 bc 84 ee 39 3e
       0.17464796 -0.18159653 -0.0273491 0.18157393
0002f0 04 51 12 3d 50 14 61 3d b4 9f 94 bd 40 ff 03 3e
       0.035721794 0.054951012 -0.072570235 0.12890339
000300 94 bf 16 3e 40 bb d3 bb 88 f4 cd bc 70 13 ba 3d
       0.14721519 -0.006461531 -0.025141016 0.09085739
000310 34 eb 20 be 86 c9 84 bd 00 df b2 bd d6 88 28 3e
       -0.15714723 -0.0648375 -0.0873394 0.16458449
000320 10 64 e9 bc a0 5e 38 3e 5a 96 40 be d8 20 39 3e
       -0.028490096 0.18004847 -0.18807355 0.18078935
000330 41 de 2d be c0 d8 28 3d 32 f1 4e 3e aa 51 42 3e
       -0.16979314 0.041222334 0.20209196 0.18976465
000340 e2 18 a5 bd a0 2d 19 3e 28 33 25 bd b8 d1 35 be
       -0.08061387 0.14958811 -0.04033199 -0.17755783
000350 38 52 c3 bd 2e b8 29 3e 28 b2 ff bc a0 bc b0 bb
       -0.09537166 0.16574165 -0.031212881 -0.0053935796
000360 40 2a f2 bc e8 66 2a 3d ec e7 91 3d 00 8e 0c 3b
       -0.029561162 0.041602045 0.07124314 0.0021446943
000370 00 48 a5 38 ea 81 14 3e c8 8a ad bc d6 da 9e bd
       7.881224e-05 0.14502683 -0.02118434 -0.077565834
000380 98 49 49 3d 9e 37 ad bd 00 87 2f 3e c0 d7 2e 3b
       0.04914245 -0.08457874 0.17141342 0.002667889
000390 e8 e8 7c 3d ac 1b 84 bd f0 57 fa bd 66 18 57 3e
       0.061745554 -0.064505905 -0.12223804 0.21005401
0003a0 fd b3 eb bd 55 fb 42 be 60 19 55 bc 58 76 9f 3c
       -0.115089394 -0.19041188 -0.013006538 0.01946561
0003b0 c8 e0 f9 bc e2 cc 29 3e b0 46 f5 3d e6 3f 57 be
       -0.030502692 0.16582063 0.11976373 -0.21020469
0003c0 40 b0 02 3e 1a 2c 30 3e b2 f9 06 3e 06 2f 11 3e
       0.12762547 0.17204323 0.13181189 0.14178094
0003d0 9f ec 04 be 03 d2 de bd 80 fe 94 3b bc 78 83 bd
       -0.12980889 -0.108799 0.0045469403 -0.06419513
0003e0 90 af 4e 3e f0 c3 5a bd fa d1 20 3e dc 1a 23 bd
       0.2018416 -0.053409517 0.157051 -0.039820537
0003f0 50 37 78 3d 30 26 a4 3d ea 96 04 3e c8 bc 63 3d
       0.060599625 0.08015096 0.12948194 0.055599958

firstBlocks.1.1.weight f4 [16, 16, 1, 1]
000000 60 3a 51 3e 22 bf 14 be 64 28 13 be c4 81 55 3e
       0.20432425 -0.14526036 -0.14370877 0.20850283
000010 c4 2f 8c bd c4 98 58 be d0 87 9a 3d ce 3b 69 3e
       -0.06845048 -0.21152025 0.075454354 0.2277672
000020 da c0 74 be 10 a8 0e 3d 00 6a db 3a 16 62 7b 3e
       -0.23901692 0.034828246 0.0016739964 0.24549136
000030 30 17 8b 3d 20 56 5d bd 20 00 c7 bd 78 2b 4b be
       0.06791532 -0.054037213 -0.09716821 -0.19840801
000040 d0 ee 3f bd 16 cd 30 be c0 dc e3 3d 18 83 06 be
       -0.04685861 -0.17265734 0.11126089 -0.13135946
000050 7c 3b 6a be 3e 66 58 be cc dd a5 3d a8 7e 42 3d
       -0.22874254 -0.21132752 0.08098945 0.04748407
000060 04 ec e4 bd a0 7d c0 bd 30 37 57 3e 14 3d 2c be
       -0.11177829 -0.09398961 0.21017146 -0.16820174
000070 e8 92 50 3e 00 18 02 3e b0 1c 21 3d 22 ae 46 be
       0.2036854 0.12704468 0.039334 -0.19402364
000080 40 b0 d6 bd 34 c8 5f be 64 53 21 be 80 91 b9 bd
       -0.10482836 -0.21853715 -0.15754467 -0.09060955
000090 12 a2 40 be d6 01 71 be 70 d8 0c be b4 c6 da bd
       -0.18811825 -0.23535857 -0.1375444 -0.10682431
0000a0 90 4d f2 3c fc 80 86 bd 40 1f d7 bd 04 69 6a 3e
       0.029578 -0.065675706 -0.10504007 0.22891623
0000b0 94 dd 5d be 30 00 d4 bd 04 b3 b4 bd 00 77 cf bb
       -0.21666557 -0.10351598 -0.08823207 -0.0063313246
0000c0 f4 0c 80 3d d0 97 e4 bd 70 de 27 bd 30 13 c2 bd
       0.062524706 -0.111617684 -0.040983617 -0.09476316
0000d0 78 75 2f bd d0 32 31 be b4 24 29 be f8 b8 7e 3d
       -0.042836636 -0.1730454 -0.16517907 0.06218812
0000e0 fc 50 6b 3e 3a 39 10 3e ec dc 12 be 20 d7 36 bd
       0.22980112 0.1408433 -0.14342088 -0.044638753
0000f0 d0 a0 c8 3d aa ac 27 be e8 de 16 3d ae 42 29 3e
       0.097962976 -0.1637446 0.036833674 0.16529343
000100 0c 68 5e 3e f0 cc 25 3d 40 48 d2 3b 7e 50 52 3e
       0.21719378 0.040478647 0.0064173043 0.20538518
000110 ec b2 ed bd 98 6a 4f bd d8 bc 62 3e 00 90 bd 3a
       -0.11606392 -0.050638765 0.2214235 0.0014462471
000120 76 7d 1b 3e 8c 67 58 3e 20 08 5b be 7e 93 2d be
       0.15184578 0.2113325 -0.21389818 -0.16950795
000130 1a 7a 22 3e 30 b7 a1 bd ee 81 3a be 0a 06 77 3e
       0.1586689 -0.07896268 -0.18213627 0.24123397
000140 00 03 fa 3a 66 59 4b be b0 a3 83 bc 02 ec 45 3e
       0.001907438 -0.19858322 -0.016069263 0.19328311
000150 00 5b 1c bd 60 11 37 3e 24 ac 20 be 74 28 dd bd
       -0.038172722 0.17877722 -0.15690666 -0.107987314
000160 e0 b1 a7 3c a0 99 06 3d a0 40 d6 bc fe de 49 be
       0.02047056 0.032861352 -0.026153862 -0.19713971
000170 1a 63 11 be 04 d8 f0 bd fa 7a 74 be 38 b8 cf bd
       -0.1419796 -0.11759952 -0.23875037 -0.10142559
000180 a0 fb 49 bd fc 1e ed 3d 90 a4 91 3d 4e 0c 6b 3e
       -0.049312234 0.115781754 0.07111466 0.22953913
000190 00 ee 95 ba f8 60 69 be 5c ec ee 3d b0 96 20 3d
       -0.0011438727 -0.22790897 0.11666176 0.039206207
0001a0 58 16 7a bd 28 a8 26 3e 22 3d 76 3e cc b7 46 3e
       -0.061056465 0.16275084 0.24046758 0.1940605
0001b0 f0 3f cd 3d 4e c6 68 be ce ef 17 3e 30 6a a2 bc
       0.10021961 -0.22731897 0.14837572 -0.019826025
0001c0 a0 2d 11 3d 64 d2 62 be 3c 3e f2 bd 38 ea 32 be
       0.035443902 -0.2215057 -0.118282765 -0.1747216
0001d0 28 a1 64 bd 54 86 39 3e 3a d2 12 be 94 16 9f 3d
       -0.055817753 0.18117648 -0.14338008 0.07767978
0001e0 c6 27 7a 3e 9c 98 7b be 14 27 07 3e e8 67 9b bd
       0.24429235 -0.24569935 0.13198501 -0.07588178
0001f0 02 e5 70 3e 74 05 7c 3e 84 19 b4 3d 38 3f 3e 3d
       0.2352486 0.24611455 0.08793929 0.04644701
000200 54 30 c2 3d 44 ea c9 bd 84 95 38 3e 5a 75 48 3e
       0.09481874 -0.09859136 0.18025786 0.19576016
000210 28 5d 2a 3d 68 4d 7a 3d 40 c5 6c bc b0 65 9a 3d
       0.041592747 0.061108977 -0.014451325 0.075389266
000220 90 3d 90 bd 10 dc 9f 3d ee 19 76 be 74 23 62 3e
       -0.07042992 0.078056455 -0.24033329 0.22083837
000230 00 bc 15 3a 44 e2 d0 3d 78 e1 5b bd 82 64 4e be
       0.0005711913 0.10199407 -0.05368182 -0.20155528
000240 28 6d 7a 3e c6 15 66 be 38 e7 63 3e 70 18 5a 3d
       0.24455702 -0.22469243 0.22256172 0.05324596
000250 f0 46 60 3e 70 80 d0 3c e0 ad 77 be 1c 5b b1 bd
       0.2190206 0.025451869 -0.24187422 -0.08659956
000260 d8 dc 75 3e a2 64 6e 3e 54 e1 99 3d c8 d6 3f 3d
       0.24010026 0.23280576 0.07513681 0.04683569
000270 0c a2 11 be 78 b9 6c 3e ae 34 07 be 64 1b a1 bd
       -0.14221972 0.23117626 -0.1320369 -0.078665525
000280 b8 ea 2e 3d 38 6f 18 be 68 79 26 3e ac f3 fc 3d
       0.042704314 -0.14886177 0.1625725 0.12351164
000290 e8 95 44 bd 22 f5 62 3e 34 47 12 be c8 bb cb 3d
       -0.047994524 0.22163823 -0.14284974 0.09947926
0002a0 50 78 f6 3d 08 16 df bd 08 d8 8c bd dc 30 45 be
       0.120346665 -0.10892874 -0.06877142 -0.1925692
0002b0 c0 d8 89 bd e0 9d 9c 3c 40 e4 01 bd e4 4f 57 3e
       -0.06730795 0.01911825 -0.031711817 0.2102657
0002c0 4c a7 5e 3e 8c 43 45 be c4 37 32 be 02 ba 32 be
       0.21743506 -0.19264048 -0.17404085 -0.17453769
0002d0 5c 48 1e 3e 78 97 39 3e 00 1f 5e bd c2 2b 32 be
       0.1545729 0.18124187 -0.054228783 -0.17399505
0002e0 70 17 49 3d 38 c2 24 3d b0 e8 c3 3d 94 a7 34 be
       0.049094617 0.040224284 0.09565866 -0.17642051
0002f0 80 74 74 bb b8 7b f8 bd e8 37 76 3d b8 89 25 bd
       -0.0037300885 -0.121329725 0.06011191 -0.040414542
000300 38 81 78 bd 24 4d 88 bd 58 3f 6f bd 10 55 a7 3d
       -0.060670108 -0.066553384 -0.05841002 0.08170521
000310 e0 80 f7 bc 48 f5 73 bd 84 2b d9 3d 80 cc 4c 3e
       -0.03021282 -0.05956009 0.10604003 0.19999886
000320 a2 2e 48 3e c0 bf 49 bd c0 da ff bb 54 aa 0e 3e
       0.19549039 -0.049255133 -0.0078080595 0.13932163
000330 14 8e 1e be 50 78 73 3e 20 f3 cf bd da eb 21 be
       -0.15483886 0.23776364 -0.10153794 -0.15812626
000340 d4 3a 67 3e 0e 69 30 be 2c ed 01 be e0 71 e2 3c
       0.22581035 -0.17227575 -0.1268813 0.02764219
000350 80 3c d8 3b e0 ca 12 3c 30 78 8a 3d 30 ea a0 3d
       0.006599009 0.008959502 0.06761205 0.07857168
000360 4e b0 73 3e 1c 75 5e be 10 4e 3d 3e 40 1c 45 be
       0.23797724 -0.21724361 0.1848681 -0.19249058
000370 b0 50 a6 bc a2 b9 53 be 90 a4 df bc 08 bb 38 3e
       -0.020302147 -0.20676282 -0.02730015 0.18040097
000380 c8 99 9a 3d b0 8c be bd 86 eb 66 3e fa b5 46 3e
       0.07548863 -0.09304178 0.22550783 0.19405356
000390 70 6c 3b bd 38 1e 2f bd 96 f3 2a be 30 7d 0e 3d
       -0.04575771 -0.04275343 -0.16694483 0.034787357
0003a0 58 c6 3a be ec ef b1 bd 10 29 89 bd 9a 14 57 3e
       -0.18239725 -0.086883396 -0.06697285 0.21003953
0003b0 88 9e 01 be 4a c1 25 3e ae 0a 29 3e e0 7a 45 3e
       -0.12658131 0.16187015 0.1650798 0.19285154
0003c0 04 c0 c4 3d 78 cd b3 bd fc e8 10 3e 2c 08 fe 3d
       0.096069366 -0.087794244 0.14151376 0.124039024
0003d0 0e d9 25 3e 72 0e 2f 3e 60 b8 03 bd 8a 5a 1e 3e
       0.16196081 0.17095354 -0.032158256 0.15464225
0003e0 2c a1 32 3e a4 b3 f2 bd c6 92 75 3e 78 eb 0e bd
       0.17444295 -0.1185067 0.23981771 -0.03489253
0003f0 68 d5 74 bd a0 60 d4 3d 34 6c b9 3d 60 d2 bf bc
       -0.059773833 0.10369992 0.09053841 -0.023415744

firstBlocks.1.2.weight f4 [16]
000000 00 00 80 3f 00 00 80 3f 00 00 80 3f 00 00 80 3f
       1.0 1.0 1.0 1.0
000010 00 00 80 3f 00 00 80 3f 00 00 80 3f 00 00 80 3f
       1.0 1.0 1.0 1.0
000020 00 00 80 3f 00 00 80 3f 00 00 80 3f 00 00 80 3f
       1.0 1.0 1.0 1.0
000030 00 00 80 3f 00 00 80 3f 00 00 80 3f 00 00 80 3f
       1.0 1.0 1.0 1.0

firstBlocks.1.2.bias f4 [16]
000000 00 00 00 00 00 00 00 00 00 00 00 00 00 00 00 00
       0.0 0.0 0.0 0.0
000010 00 00 00 00 00 00 00 00 00 00 00 00 00 00 00 00
       0.0 0.0 0.0 0.0
000020 00 00 00 00 00 00 00 00 00 00 00 00 00 00 00 00
       0.0 0.0 0.0 0.0
000030 00 00 00 00 00 00 00 00 00 00 00 00 00 00 00 00
       0.0 0.0 0.0 0.0

firstBlocks.1.2.running_mean f4 [16]
000000 00 00 00 00 00 00 00 00 00 00 00 00 00 00 00 00
       0.0 0.0 0.0 0.0
000010 00 00 00 00 00 00 00 00 00 00 00 00 00 00 00 00
       0.0 0.0 0.0 0.0
000020 00 00 00 00 00 00 00 00 00 00 00 00 00 00 00 00
       0.0 0.0 0.0 0.0
000030 00 00 00 00 00 00 00 00 00 00 00 00 00 00 00 00
       0.0 0.0 0.0 0.0

firstBlocks.1.2.running_var f4 [16]
000000 00 00 80 3f 00 00 80 3f 00 00 80 3f 00 00 80 3f
       1.0 1.0 1.0 1.0
000010 00 00 80 3f 00 00 80 3f 00 00 80 3f 00 00 80 3f
       1.0 1.0 1.0 1.0
000020 00 00 80 3f 00 00 80 3f 00 00 80 3f 00 00 80 3f
       1.0 1.0 1.0 1.0
000030 00 00 80 3f 00 00 80 3f 00 00 80 3f 00 00 80 3f
       1.0 1.0 1.0 1.0

lastLayer.0.weight f4 [4, 16, 1, 31]
000000 28 1a b9 bb 4c e2 4e 3c 4f e7 2b bd 1a fd 14 bd
       -0.00564887 0.012627196 -0.04196864 -0.03637419
000010 d4 45 f3 3c 74 13 48 bc 6a 87 85 bc a2 f5 89 bc
       0.029696383 -0.012211669 -0.016299922 -0.01684076
000020 64 aa 17 3d e8 e5 ca bb 84 3d 44 bc f2 2e 0b 3d
       0.03702773 -0.0061919577 -0.011977557 0.033980317
000030 4a dc 06 bd d0 fb b2 3b f8 4c 91 3b 56 14 e6 bc
       -0.032924928 0.0054621473 0.004434224 -0.028085869
000040 73 e4 0b bd 84 f8 70 bc 92 6f 75 bc 61 3b d2 bc
       -0.034153413 -0.014707688 -0.014980214 -0.02566308
000050 90 d2 15 3c 20 bb c3 3c 30 ff db 3c a8 c3 e1 3c
       0.00914444 0.02389294 0.026855081 0.027559116
000060 8c e0 35 bd 88 09 d4 3c 48 d6 c2 bb 20 ac cc 3a
       -0.044403598 0.025883451 -0.0059459545 0.0015615262
000070 04 e6 ff bc 4a ba b3 bc 8e eb 13 bd ab 20 27 bd
       -0.03123761 -0.021939415 -0.036113314 -0.04080264
000080 1a a5 10 bd 94 13 25 3d 12 52 11 3d 2c f9 47 bc
       -0.035313703 0.040301874 0.03547866 -0.012205403
000090 60 74 1b 3b 66 c5 2c bd 6a 2b 19 3d 88 90 f1 bc
       0.0023720488 -0.04218044 0.03739492 -0.029487863
0000a0 e4 8f ee 3c 18 08 27 bd c0 7a f7 ba b8 fe 2d 3d
       0.029121347 -0.040779203 -0.0018881187 0.042479247
0000b0 a4 ee bf 3c a0 fe 95 bc cb 44 1a bd a0 e4 92 3a
       0.023429222 -0.018309891 -0.037663262 0.0011207052
0000c0 64 0d 1c bc 20 a7 59 3b c0 5a bb 3c 67 fc 85 bc
       -0.009524677 0.0033211187 0.022870421 -0.016355706
0000d0 80 7c e7 bc a2 4c 0b bd f0 09 97 3b f2 24 0a 3d
       -0.028257608 -0.03400863 0.004609339 0.03372664
0000e0 40 4d 1c 3d a4 61 1b bd 00 58 27 bd a8 32 10 bc
       0.03815961 -0.037934914 -0.040855408 -0.00880114
0000f0 88 a9 11 bd 0c 91 3a 3c cd 92 dd bc 4f ac a0 bc
       -0.03556207 0.011387121 -0.02704754 -0.019613413
000100 38 79 d3 3c 96 88 d8 bc 76 33 26 3d 95 ac 1d bd
       0.025814638 -0.026432317 0.04057642 -0.038494665
000110 3c 36 56 bc 80 be 17 bd 08 58 45 3c 6c e4 ba 3c
       -0.013074454 -0.03704691 0.012044914 0.022813998
000120 94 1d 4a bc 14 a3 37 3c 6c 86 e1 3c 6c 82 9a 3c
       -0.012336154 0.011208314 0.027529918 0.018861018
000130 bb 12 98 bc f4 ad a7 3c 50 b6 6d 3c 0c 1e cf bc
       -0.018563619 0.02046869 0.014508799 -0.025282882
000140 fc 0b 6c 3c f2 e2 04 3d 20 6f 92 3c 00 af 32 3a
       0.014407154 0.032442994 0.017875254 0.0006816238
000150 00 45 96 3b 98 d8 54 3c 93 67 b9 bc 96 b5 a8 bc
       0.004585862 0.012991093 -0.022632396 -0.0205944
000160 e5 4b c7 bc 1a 57 18 3d 70 17 ad 3c 0e b5 a0 bc
       -0.024328182 0.03719244 0.02112934 -0.019617584
000170 6c 58 d9 3c 7e ce 13 3d 3c 83 f9 3c e0 de f2 3b
       0.02653142 0.0360856 0.030458085 0.0074118227
000180 3c 2b 08 3c 39 16 e6 bc fa af 30 3d f4 71 d1 3c
       0.008311089 -0.028086768 0.043136574 0.025567032
000190 78 2c 2a 3d 6c 5c 03 bc d4 ad 1d bd f0 5f db 3c
       0.041546315 -0.008017641 -0.038495854 0.026779145
0001a0 53 fe 95 bc b0 e2 21 bb 2c 43 77 bc d4 34 d7 3c
       -0.018309748 -0.0024701767 -0.015091699 0.026270308
0001b0 10 16 fc 3c 50 db 98 bb eb b3 8d bc 8a 08 18 3d
       0.030772239 -0.004664816 -0.017297706 0.03711752
0001c0 74 4a 3c bc 02 65 61 bc e8 32 bf bb a8 12 a0 bb
       -0.01149236 -0.013756992 -0.005834926 -0.0048850365
0001d0 6a 56 15 bd 85 a9 ef bc d8 c0 c0 3c bc e3 2b 3d
       -0.036459364 -0.029255638 0.023529455 0.04196523
0001e0 23 13 b9 bc 78 73 2b 3c 4f 4a af bc 20 42 33 bb
       -0.022592133 0.010464542 -0.021397738 -0.0027352646
0001f0 1d 89 06 bd a8 92 07 bd ea 86 8d 3c f0 17 1b 3b
       -0.032845605 -0.033098847 0.017276246 0.002366539
000200 9c 38 ee 3c e0 96 03 3d 4c a0 25 3d d0 d8 15 3c
       0.029079728 0.032126307 0.040436074 0.00914593
000210 39 26 9e bc cc 94 75 bc 31 0f 9a bc f2 91 00 bd
       -0.019305335 -0.014989089 -0.018806072 -0.031389184
000220 c0 4f 6a 3a c8 b8 37 3d 48 fb e1 bb 6c 1e 20 3c
       0.0008938275 0.044853956 -0.00689641 0.009772878
000230 34 4c 16 bd 28 d3 f6 bb 06 a8 18 3d 44 d6 06 3d
       -0.036693767 -0.007532496 0.037269615 0.032919183
000240 80 61 03 3b 2a 80 fe bc b0 17 e8 3c da 3a d2 bc
       0.0020047128 -0.031066973 0.028331608 -0.025662828
000250 c3 6a e6 bc 95 f7 2d bd 78 23 cf bc 90 6c 51 bc
       -0.02812708 -0.04247244 -0.025285468 -0.012782231
000260 02 bd 2a 3d fe d4 16 3d 0a 39 09 3d c0 a6 1a 3a
       0.04168416 0.03682422 0.033501662 0.00058994815
000270 dc 7a cc 3c d4 13 00 bc 8e a4 0d bd 18 6e bf bc
       0.024960928 -0.007817227 -0.03458076 -0.023367926
000280 24 b5 21 bc 84 c9 c2 3c 0a 24 00 3d e4 53 36 3c
       -0.009869847 0.02377773 0.03128437 0.0111283995
000290 3d 56 17 bd 59 77 b0 bc c4 5c 1d 3d 63 d3 13 bd
       -0.036947478 -0.021541284 0.038418546 -0.036090266
0002a0 ec 8e 0a 3d 00 54 a7 38 94 4c 00 bd b0 35 89 3c
       0.033827707 7.978827e-05 -0.03132303 0.016749233
0002b0 25 b6 e3 bc 05 2b 34 bd b0 88 97 3b ae d3 04 3d
       -0.027796814 -0.04398634 0.0046244487 0.032428436
0002c0 5e 3c 18 3d 1a 78 16 bd d0 17 35 bb bc af 07 3d
       0.037166946 -0.03673563 -0.0027632602 0.033126578
0002d0 12 9d 00 3d 7b 39 98 bc c3 0b e6 bc 9e 80 c4 bc
       0.031399794 -0.018582096 -0.02808178 -0.02398711
0002e0 44 ad 2f 3d b4 d6 23 bc 03 22 cb bc b7 3d 02 bd
       0.04288985 -0.00999992 -0.024796491 -0.031797137
0002f0 0e 83 02 3d 00 06 2d b9 97 89 f0 bc 97 7e 2e bd
       0.031863265 -0.00016500801 -0.029362483 -0.042601194
000300 44 3a e6 bc b9 98 ee bc 40 71 94 3b 40 a0 c1 3a
       -0.028103955 -0.029125558 0.004530102 0.001477249
000310 9c c1 06 bd 84 bc a5 3c 10 1f 07 bd 60 3b cf 3c
       -0.032899484 0.020231493 -0.032988608 0.025296867
000320 a8 b5 77 3c a0 21 94 3a 8c c3 2f bc 48 9e 2d 3d
       0.015118994 0.0011301525 -0.010727774 0.042387277
000330 9d 0e 1d bd fa 27 f1 bc f8 4d a5 3b 08 a7 43 3c
       -0.038344014 -0.029438008 0.005044695 0.011941679
000340 de 62 0e bd fa b5 ae bc e8 aa d2 3b 19 51 00 bd
       -0.034762256 -0.021327008 0.006429065 -0.03132734
000350 a2 51 16 3d 26 81 32 3d a0 c0 1d bd 44 19 f8 3c
       0.036698945 0.043580197 -0.03851378 0.030285485
000360 be b7 1f bd 1c 7d 1e bd fa eb 06 3d be 28 27 bd
       -0.03899359 -0.038693532 0.03293989 -0.04081034
000370 7e 17 e9 bc f1 3e 18 bd c8 e3 2f bd 02 06 32 3d
       -0.028453585 -0.0371694 -0.04294184 0.04346276
000380 bf c4 80 bc 58 e2 f6 3c 00 74 e7 3b 50 7f d1 3b
       -0.015718816 0.030137226 0.007063389 0.0063933507
000390 b6 b3 0e 3d b8 13 6f bc e8 3b 2c 3c dc b4 77 3c
       0.034839354 -0.014592104 0.01051233 0.015118804
0003a0 5a d1 1d 3d 44 79 f1 3c de a3 0b 3d 2a 11 0d bd
       0.03852973 0.02947677 0.034091823 -0.034440197
0003b0 e8 ed 94 bc b6 7a 27 bd e7 65 1a bd 88 76 20 3d
       -0.018179849 -0.04088851 -0.037694838 0.03917554
0003c0 aa dc 16 3d d0 79 19 bb 30 6f b5 3c 68 4c 07 bc
       0.036831535 -0.0023418553 0.022147745 -0.008257963
0003d0 00 01 1a 3b c4 4a 7d 3c d0 71 dc 3c 9e 83 fc bc
       0.0023499131 0.01545972 0.026909739 -0.030824479
0003e0 5f 04 22 bd 98 61 98 bb ac 55 a0 bc 7a fb a6 bc
       -0.03955495 -0.004650306 -0.019572102 -0.020383585
0003f0 70 9a 6b 3b 13 91 13 bd 97 c9 12 bd 7c c4 15 bd
       0.0035950206 -0.036027025 -0.035836782 -0.036564335

lastLayer.0.bias f4 [4]
000000 d8 dd c4 bb ce fc 19 bd 50 86 1d bd 68 36 96 bc
       -0.006007891 -0.03759461 -0.03845817 -0.01833649
